learning/path_model.pt (torch, 819253 bytes, 10 tensors)

lstm.weight_ih_l0 f4 [512, 5]
-0.011713263 0.07576696 0.08058622 -0.05936633 0.057427146 -0.018456137 -0.06537169 -0.08090846
0.032474935 -0.025162458 -0.031529523 0.023041226 -0.03022207 -0.054917958 0.013656754 -0.039964624
0.06012477 -0.06822843 -0.0755196 0.04165076 0.005727689 -0.084446855 -0.07256558 -0.025677191
0.021045702 0.046483863 0.06406226 -0.062438793 -0.041415416 0.02479455 -0.012433384 0.08584019
-0.058501437 -0.03384064 -0.007278571 0.050565545 0.05699317 0.05799345 -0.049577598 -0.075070426
0.035637826 0.05571436 0.031396534 0.03566852 0.03319017 0.0075060446 0.071702674 0.00014622774
0.060723335 0.032138467 -0.007864884 0.012388893 0.07222394 -0.07582688 0.043805312 0.023744112
0.0021199232 -0.04837018 0.028908955 0.045024823 0.018632414 0.06594217 -0.017116532 0.029998228
0.0078326715 0.020585911 -0.03436336 -0.059190758 0.0208136 -0.039264034 0.056040555 0.06197906
0.028284907 0.006725004 0.06204079 0.06934169 -0.014883021 0.06229695 -0.05230845 0.061619725
-0.019556182 0.026525388 0.0012120807 -0.054522023 0.03489309 0.07607784 -0.009458164 0.041494478
-0.015802866 0.072353475 -0.03688059 -0.033373147 -0.03855248 0.024477098 -0.0198489 -0.07472442
0.024686115 -0.010554371 -0.047060855 0.055130944 -0.06355098 -0.057855695 -0.064084865 -0.030694643
-0.07493308 0.0490194 0.057001505 0.03660936 -0.039530125 0.014483977 -0.07252403 -0.036087953
0.054613296 0.07621062 0.06921043 0.07607776 -0.07405959 -0.06843838 0.0016185337 0.031391498
-0.005618312 0.03725863 0.043827068 0.07868372 -0.0535885 0.011578793 0.013003556 -0.06129294
0.076944046 -0.07900396 -0.06283865 -0.07651395 -0.0718416 -0.0709122 -0.070221424 -0.039225176
0.0065583657 -0.002914739 0.036094233 -0.08128385 0.06270723 0.004376606 -0.038892765 0.0084283715
-0.03331008 -0.046510942 0.05943559 -0.05121191 -0.059156664 0.0705609 0.072907016 0.026337892
0.026450181 0.053569265 -0.051693983 0.061025623 0.014163943 0.012538888 0.08581019 0.063648075
0.06537745 0.048095297 -0.017072488 0.020530751 -0.07608442 0.051881593 0.09520838 0.09256726
-0.00019019141 0.010328531 0.07895832 0.040228695 0.05404783 0.030551253 0.07366272 -0.0365305
0.038117472 0.019285368 -0.078394555 0.03781805 0.06861904 -0.05595583 -0.06297864 0.03195183
0.012712047 0.069774434 0.085950665 -0.077162944 0.008656045 -0.07863381 -0.038481306 0.036059514
0.022551218 -0.006529495 0.04043401 -0.059276685 -0.0025185903 -0.062269058 0.023802558 0.06480678
-0.02695744 0.0029858092 -0.054623947 -0.014731451 0.03954412 0.012231268 -0.00054544344 -0.009256881
0.07290192 -0.07140524 -0.042677082 0.0068673934 -0.05041239 0.071104445 0.09064323 0.007628059
-0.010936042 0.08172823 -0.09375507 0.015879761 -0.03806564 -0.03259047 0.023842847 0.027696647
-0.027007556 0.07285503 -0.047076724 0.017929185 -0.07015911 -0.004004138 0.01935123 -0.0461842
-0.049195528 -0.023960019 -0.08455183 0.012411362 -0.017429344 0.046978373 -0.009461166 0.07514369
0.006253486 0.006994986 0.0027942623 0.0034143373 0.026109034 -0.021772841 0.04146628 -0.062951796
-0.07365579 -0.03531169 -0.080946326 0.040640563 0.08416723 -0.046028137 0.059532497 0.043957464
00000000: fce8 3fbc b52b 9b3d 630a a53d 1c2a 73bd
00000010: ba38 6b3d 5331 97bc 98e1 85bd 56b3 a5bd
00000020: 7004 053d 8021 cebc 1a25 01bd f4c0 bc3c
00000030: 4694 f7bc a7f1 60bd 94c0 5f3c f2b1 23bd
00000040: 6445 763d 59bb 8bbd 05aa 9abd fd99 2a3d
00000050: 56af bb3b 79f2 acbd 439d 94bd f958 d2bc
00000060: 0968 ac3c dd65 3e3d 1333 833d d2bf 7fbd
00000070: 36a3 29bd f11d cb3c 64b5 4bbc fbcc af3d
00000080: 349f 6fbd 7c9c 0abd 1481 eebb d11d 4f3d
00000090: ac71 693d 8a8a 6d3d e111 4bbd 86be 99bd
000000a0: f8f8 113d be34 643d a799 003d 2719 123d
000000b0: 6af2 073d 44f5 f53b dad8 923d b654 1939
000000c0: 08b9 783d a0a3 033d b7db 00bc c9fa 4a3c
000000d0: 25ea 933d 204b 9bbd 336d 333d 0383 c23c
000000e0: 69ee 0a3b cf1f 46bd 79d2 ec3c f36b 383d
000000f0: 01a3 983c b00c 873d f837 8cbc d8be f53c
00000100: 9b54 003c c9a3 a83c 98c0 0cbd 0272 72bd
00000110: 4881 aa3c 53d3 20bd c88a 653d c1dd 7d3d
00000120: c0b5 e73c 6c5d dc3b 7c1e 7e3d 0403 8e3d
00000130: ead7 73bc 162b 7f3d 6341 56bd f764 7c3d
00000140: 4934 a0bc c54b d93c aede 9e3a 7c52 5fbd
00000150: 0fec 0e3d b3ce 9b3d 6af6 1abc 1df6 293d
00000160: 0375 81bc 0f2e 943d 1a10 17bd 48b2 08bd
00000170: 35e9 1dbd 3284 c83c 299a a2bc 1e09 99bd
00000180: 893a ca3c 3eec 2cbc e2c2 40bd fcd0 613d
00000190: 0427 82bd 18fa 6cbd ed3e 83bd 5573 fbbc
000001a0: 8476 99bd 91c8 483d 697a 693d b2f3 153d
000001b0: 57ea 21bd 344e 6d3c 7b87 94bd f6d0 13bd
000001c0: 31b2 5f3d 5014 9c3d 33be 8d3d a8ce 9b3d
000001d0: 8eac 97bd 6c29 8cbd fb24 d43a 5f94 003d
000001e0: d119 b8bb 819c 183d 0384 333d ee24 a13d
000001f0: 9d7f 5bbd fab4 3d3c de0c 553c 4e0e 7bbd
00000200: d794 9d3d d4cc a1bd 8db1 80bd 59b3 9cbd
00000210: b021 93bd 6a3a 91bd 40d0 8fbd 94aa 20bd
00000220: 8fe7 d63b 3505 3fbb 8cd7 133d 2678 a6bd
00000230: a66c 803d a269 8f3b 054e 1fbd 2717 0a3c
00000240: 2770 08bd 4282 3ebd bc72 733d 94c3 51bd
00000250: 424e 72bd 3c82 903d 4650 953d 90c2 d73c
00000260: 0dae d83c 726b 5b3d 12bd 53bd 01f6 793d
00000270: e20f 683c e86f 4d3c 41bd af3d ec59 823d
00000280: 9de4 853d 93ff 443d 9adb 8bbc 1b30 a83c
00000290: 26d2 9bbd cb81 543d 9cfc c23d e793 bd3d
000002a0: 1e6e 47b9 0039 293c e6b4 a13d d8c6 243d
000002b0: 4261 5d3d 9f46 fa3c 7bdc 963d 01a1 15bd
000002c0: 1121 1c3d 59fc 9d3c 538d a0bd 19e7 1a3d
000002d0: 2488 8c3d f131 65bd f2fa 80bd ecdf 023d
000002e0: 3146 503c e6e5 8e3d e706 b03d 9b07 9ebd
000002f0: 16d2 0d3c c30a a1bd 939e 1dbd 24b3 133d
00000300: 55bd b83c 60f5 d5bb 229e 253d 1ccc 72bd
00000310: ef0e 25bb d70d 7fbd 95fd c23c 6bb9 843d
00000320: d9d5 dcbc 91ad 433b 5cbd 5fbd 2f5c 71bc
00000330: 04f9 213d a865 483c 17fc 0eba 2caa 17bc
00000340: 9a4d 953d e93c 92bd 2ace 2ebd df07 e13b
00000350: 397d 4ebd 359f 913d 28a3 b93d ccf4 f93b
00000360: 162d 33bc 2161 a73d a802 c0bd 4616 823c
00000370: b7ea 1bbd 967d 05bd 1352 c33c 14e4 e23c
00000380: f33e ddbc 0535 953d 86d3 40bd 3ae0 923c
00000390: 94af 8fbd 2535 83bb 7886 9e3c a52b 3dbd
000003a0: 4081 49bd cd47 c4bc 8329 adbd 0659 4b3c
000003b0: fcc7 8ebc 656c 403d 0203 1bbc efe4 993d
000003c0: 0bea cc3b 3236 e53b f11f 373b 13c3 5f3b
000003d0: 9de2 d53c f55c b2bc 8cd8 293d dfec 80bd
000003e0: d9d8 96bd fea2 10bd 30c7 a5bd b876 263d
000003f0: de5f ac3d 0088 3cbd 59d8 733d be0c 343d

lstm.weight_hh_l0 f4 [512, 128]
-0.036550958 0.06778471 0.059912134 0.046463273 0.059265252 0.02568568 0.023747927 0.08555213
-0.06141943 -0.022655185 -0.07257683 -0.053392008 0.06214162 -0.079923056 0.08596759 -0.03840623
-0.014893685 -0.07069773 -0.07505313 0.005969585 0.028491365 -0.010969371 -0.011147209 -0.03207899
-0.088275984 -0.06463627 -0.081488214 -0.009735522 0.058351815 -0.08068603 0.07987896 -0.024501797
-0.04720821 -0.06815891 0.07968951 0.013106374 0.04968734 -0.03493097 0.055964354 0.014889576
-0.01078913 -0.0755065 0.040435854 -0.07074693 -0.068172865 -0.025945842 0.06307754 0.027434131
0.08638624 -0.008133309 0.041415885 -0.04532748 -0.029694583 -0.056215413 -0.05330529 -0.0410669
0.009584172 0.066760436 0.0076728864 0.049258284 -0.043857798 -0.009457321 0.010136675 -0.048520252
-0.07930408 0.07064512 -0.06288775 0.07086127 0.038146805 0.022108793 0.024661828 0.06517906
-0.030793278 -0.0042204903 -0.061256018 0.006767161 0.009726986 0.055514418 -0.029667461 0.053495117
-0.058452822 0.031428494 0.06788501 0.072590105 -0.061750304 0.028720295 -0.027678689 -0.053032998
-0.033404473 -0.027519278 -0.045132045 -0.0056993603 0.022686552 0.008736209 0.025668748 -0.057166297
-0.040290214 0.010406963 0.06880566 0.06023691 0.034011178 -0.0512795 -0.036086712 -0.059322912
0.0021117362 0.010713402 0.044144776 -0.02810885 -0.013704996 -0.07381838 0.027213546 0.050391983
0.06570175 0.078373805 -0.042113226 -0.073412 0.08545855 -0.05807507 0.024011511 0.051287815
0.04806553 0.047752686 -0.018960582 -0.027540889 0.024983756 -0.026189378 -0.07835982 0.08099337
-0.03668916 -0.08318576 -0.0665333 0.015909825 0.06693621 -0.057878908 -0.03508514 -0.046310302
-0.025102904 0.07172358 -0.014427309 0.041224886 0.018080175 -0.07921477 0.03699057 -0.036776118
-0.0878448 0.06789322 0.058594834 -0.0063819177 0.042115394 -0.017991858 0.002610207 -0.05613764
0.058186 0.08436051 0.008473423 -0.016226757 0.07069549 -0.009109588 -0.0335408 0.06461419
0.010495545 0.025351983 -0.02655108 -0.008912088 -0.056840587 0.002947287 0.049588244 0.06645778
0.015430382 0.06372296 -0.079553135 0.010700337 -0.002139827 -0.005377653 -0.06717499 -0.024023546
-0.0064624394 0.029689377 -0.013196251 0.06152718 -0.035078168 -0.03032962 -0.050858065 -0.024934728
0.03052829 0.020161608 0.004912247 -0.0454963 -0.0522326 0.025622534 0.08627785 0.056495048
0.040062707 -0.029274326 -0.025758225 -0.00037447474 0.027703218 0.012594384 0.07551674 -0.08286358
0.019875906 -0.040562328 -0.08542428 -0.08315707 0.046684537 0.050077576 -0.06104168 -0.039513566
0.029791204 -0.08648348 -0.05722874 0.07912814 0.078454986 0.07947975 -0.0025382307 -0.007995025
0.013946655 0.078860536 -0.00022738225 0.03438954 -0.07826502 -0.005733552 0.009765983 -0.049078096
-0.07071665 0.036601577 -0.024356147 0.034364466 0.076591834 -0.083506614 0.058239315 -0.02120488
-0.011209629 -0.026507406 0.025558185 -0.044540506 -0.07093349 -0.07090363 -0.039566964 0.010829927
0.0015816658 -0.08196819 -0.016278714 0.009455698 -0.07340767 0.020940745 -0.03705082 0.029635418
0.08220226 -0.047797002 0.079330966 -0.04748659 -0.07222483 0.047592852 -0.050720908 0.052952953
00000000: 75b6 15bd b6d2 8a3d 6d66 753d 4650 3e3d
00000010: 1fc0 723d c66a d23c 038b c23c f535 af3d
00000020: f192 7bbd 5e97 b9bc 29a3 94bd 94b1 5abd
00000030: 3688 7e3d b3ae a3bd c70f b03d da4f 1dbd
00000040: a404 74bc f9c9 90bd 75b5 99bd 829c c33b
00000050: b966 e93c e0b8 33bc c9a2 36bc 4265 03bd
00000060: 0aca b4bd 0560 84bd 4be3 a6bd bd81 1fbc
00000070: 5002 6f3d b83e a5bd 9597 a33d feb7 c8bc
00000080: 655d 41bd e696 8bbd 4134 a33d 1ebc 563c
00000090: f484 4b3d c713 0fbd e13a 653d 68f3 733c
000000a0: e4c4 30bc 27a3 9abd 11a0 253d c4e3 90bd
000000b0: 379e 8bbd 608c d4bc cc2e 813d 8bbd e03c
000000c0: 45eb b03d 9241 05bc b4a3 293d 4fa9 39bd
000000d0: 0e42 f3bc 2242 66bd a656 5abd c435 28bd
000000e0: ee06 1d3c b2b9 883d d66c fb3b 0ec3 493d
000000f0: 3ca4 33bd e1f2 1abc 4c14 263c 2cbd 46bd
00000100: 2d6a a2bd 64ae 903d 4bcb 80bd b71f 913d
00000110: d33f 1c3d 801d b53c 9a07 ca3c 997c 853d
00000120: 2f42 fcbc 0a4c 8abb 97e7 7abd 10bf dd3b
00000130: f05d 1f3c 1663 633d 2d09 f3bc b21d 5b3d
00000140: 3a6c 6fbd 2abb 003d 4c07 8b3d 1faa 943d
00000150: e3ed 7cbd d346 eb3c 6bbe e2bc 2139 59bd
00000160: 21d3 08bd 1c70 e1bc 61dc 38bd b3c1 babb
00000170: 26d9 b93c 5122 0f3c 4447 d23c 3527 6abd
00000180: 5a07 25bd f781 2a3c fbe9 8c3d faba 763d
00000190: 4e4f 0b3d 740a 52bd a9cf 13bd 95fc 72bd
000001a0: 0e65 0a3b 4487 2f3c 27d1 343d 8844 e6bc
000001b0: eb8a 60bc 172e 97bd f1ee de3c d367 4e3d
000001c0: a48e 863d 7282 a03d eb7e 2cbd 0859 96bd
000001d0: e404 af3d 20e0 6dbd cab3 c43c 2c13 523d
000001e0: 5ce0 443d 5298 433d 3953 9bbc 6e9d e1bc
000001f0: bcaa cc3c 1b8b d6bc 1d7b a0bd dadf a53d
00000200: 5f47 16bd 4c5d aabd 9c42 88bd 5255 823c
00000210: da15 893d 6f12 6dbd 70b5 0fbd dfaf 3dbd
00000220: 9ba4 cdbc d0e3 923d 8560 6cbc 6ddb 283d
00000230: e01c 943c 5a3b a2bd 6d83 173d 8ea2 16bd
00000240: f9e7 b3bd 9a0b 8b3d 2301 703d 681f d1bb
00000250: 3181 2c3d a963 93bc 0210 2b3b 95f0 65bd
00000260: 7154 6e3d 34c5 ac3d 1dd4 0a3c faed 84bc
00000270: ccc8 903d 6240 15bc 1462 09bd 7254 843d
00000280: 82f5 2b3c f6ae cf3c a781 d9bc 0204 12bc
00000290: add1 68bd 4527 413b 0b1d 4b3d 041b 883d
000002a0: b7cf 7c3c 2f81 823d c1ec a2bd 7750 2f3c
000002b0: 573c 0cbb 0637 b0bb 0b93 89bd 07cd c4bc
000002c0: dfc2 d3bb 2337 f33c 1735 58bc ed03 7c3d
000002d0: 20ae 0fbd d375 f8bc 8c50 50bd ea43 ccbc
000002e0: 7716 fa3c f529 a53c eaf6 a03b 545a 3abd
000002f0: daf1 55bd 59e6 d13c 71b2 b03d 5a67 673d
00000300: cb18 243d b6d0 efbc ea02 d3bc 2655 c4b9
00000310: dcf1 e23c ad58 4e3c 85a8 9a3d 61b4 a9bd
00000320: ccd2 a23c af24 26bd edf2 aebd 414e aabd
00000330: 4938 3f3d 251e 4d3d d706 7abd fad8 21bd
00000340: af0c f43c 401e b1bd af68 6abd ef0d a23d
00000350: 02ad a03d 47c6 a23d 7258 26bb 91fd 02bc
00000360: 8380 643c a281 a13d 756d 6eb9 0cdc 0c3d
00000370: 6949 a0bd 85e0 bbbb 8001 203c 1d06 49bd
00000380: e4d3 90bd 89eb 153d 8b86 c7bc c1c1 0c3d
00000390: 2edc 9c3d 8405 abbd 598c 6e3d dbb5 adbc
000003a0: 97a8 37bc 0f26 d9bc 665f d13c 1b70 36bd
000003b0: 9445 91bd ec35 91bd f810 22bd 0270 313c
000003c0: e64f cf3a f0de a7bd f05a 85bc 12ec 1a3c
000003d0: c356 96bd ed8b ab3c 9ac2 17bd fac5 f23c
000003e0: a959 a83d cac6 43bd 4678 a23d 4c81 42bd
000003f0: 9dea 93bd b9f0 423d bac0 4fbd 32e5 583d

lstm.bias_ih_l0 f4 [512]
-0.07419994 0.07392867 -0.024478437 0.076335534 8.2462e-05 0.01278684 -0.012785341 0.012076457
0.08697843 0.011189407 -0.019957978 -0.013548241 -0.02214574 -0.029971235 -0.029463155 0.03208002
0.02654469 0.060991284 0.05871565 -0.08379857 0.028209412 -0.049396392 -0.06608257 0.022410458
-0.07308922 -0.08285383 -0.020113824 -0.079672925 0.06843823 -0.016744489 -0.019796606 -0.045219775
-0.039830543 -0.041571017 -0.070822574 0.018555777 0.06265125 0.03651035 0.053780694 -0.00064303447
-0.08444687 -0.06360448 -0.07131666 0.035344023 -0.08677974 -0.04451496 0.04537848 -0.053055167
0.05574988 -8.144878e-06 -0.03306585 0.02210044 -0.024743918 -0.045744628 0.0015891363 -0.0015866497
0.0008058056 -0.00864003 0.04889517 0.08784222 0.08105066 0.05790993 -0.015253351 -0.015350198
-0.009858601 0.016942423 -0.068999566 -0.03383152 -0.07345486 0.01647533 -0.023161631 -0.03637744
-0.05540257 -0.0048034657 0.053444285 -0.017834838 0.093313016 0.08394852 0.015308051 -0.058964908
0.03401659 -0.016671697 0.00083959504 -0.038726244 -0.03451235 0.061691344 -0.018804522 0.005501818
-0.031974696 0.0018264863 -0.0025971625 0.02784837 -0.049230322 0.071518034 -0.026349956 0.08280221
-0.051027555 0.052690428 -0.03568401 -0.06862676 0.078423336 0.03473187 -0.08284301 0.04816572
0.049079563 0.0016083708 0.0461065 0.055008758 0.0062022367 -0.016372586 -0.048987724 0.019775122
-0.0065919147 0.029992603 0.070432186 0.051109545 -0.053552605 0.059688523 -0.04825299 -0.02416696
0.022672094 0.03721609 -0.08562702 -0.04106693 -0.032917604 -0.020874385 0.011564726 0.039890844
-0.06619407 0.055775043 0.06950605 0.07404419 -0.0151103195 -0.07709781 0.024620397 -0.07856358
-0.06726766 -0.007840841 -0.0572191 -0.04660299 0.039179277 -0.008190397 -0.054907914 0.070856385
-0.017985374 -0.06473076 0.015084905 -0.0584316 -0.07077126 -0.02875749 -0.05831519 0.065137446
-0.002310859 -0.030433133 -0.012246336 -0.00050747965 0.04798683 0.001290389 0.087057546 -0.057341747
0.037652202 -0.015810497 0.074183576 0.10500254 0.024736302 -0.062506855 -0.005971327 -0.057045016
-0.059694424 0.07107059 -0.010829969 -0.037120868 0.058058232 0.08552426 -0.010928045 0.023792833
0.044099785 -0.06960148 0.13305287 0.03379989 0.02433343 -0.0247143 -0.03968193 -0.0010261785
0.044572588 0.002214922 -0.0470211 0.06048629 0.0657811 -0.040196314 -0.08455989 -0.022141414
0.001082015 0.07539067 -0.013880812 -0.025902905 -0.024234932 -0.031570066 -0.044786695 0.046565417
0.035787947 -0.019397192 0.06829619 0.06538839 0.0739467 0.06683374 -0.021604285 -0.07454119
0.034136422 0.019109339 -0.027512647 0.060092796 -0.05646775 0.069545746 -0.044861127 0.03224306
-0.00465985 0.012954982 0.07588716 -0.025016261 0.05546291 0.08608207 -0.048288148 0.06934456
-0.067091174 0.076295085 0.023206286 -0.020400507 0.0005810891 0.043148533 0.087633654 -0.051619403
-0.025006462 0.12485332 0.049525555 -0.04256274 -0.017594213 -0.011285293 0.065636136 -0.015924986
-0.0667906 -0.013214722 0.03850537 -0.027237808 0.03479432 0.03382992 0.07294865 0.036754224
-0.008889066 -0.0479676 0.06660251 -0.04214785 0.069954276 0.054372136 -0.0329868 -0.06942228
00000000: 23f6 97bd ea67 973d 0187 c8bc ce55 9c3d
00000010: 73ef ac38 e57f 513c 9b79 51bc 55dc 453c
00000020: bf21 b23d c653 373c ea7e a3bc 71f9 5dbc
00000030: fc6a b5bc 3c86 f5bc b75c f1bc 5766 033d
00000040: 4074 d93c ffd1 793d d27f 703d 969e abbd
00000050: 6d17 e73c df53 4abd 4c56 87bd 2396 b73c
00000060: cdaf 95bd 45af a9bd bfc5 a4bc 8f2b a3bd
00000070: 5829 8c3d bd2b 89bc 7e2c a2bc 5f38 39bd
00000080: 5a25 23bd 5f46 2abd 6d0b 91bd 4902 983c
00000090: 4c4f 803d e08b 153d 2549 5c3d 5091 28ba
000000a0: 7bf2 acbd 1143 82bd 780e 92bd e5c4 103d
000000b0: 94b9 b1bd 5255 36bd c9de 393d 6050 59bd
000000c0: fc59 643d fca5 08b7 0f70 07bd fb0b b53c
000000d0: c2b3 cabc b85e 3bbd 914a d03a 21f7 cfba
000000e0: b33c 533a ea8e 0dbc 4d46 483d 9fe6 b33d
000000f0: e3fd a53d f632 6d3d 31e9 79bc 667f 7bbc
00000100: f885 21bc d6ca 8a3c a54f 8dbd eb92 0abd
00000110: 806f 96bd 45f7 863c 76bd bdbc 8300 15bd
00000120: ceed 62bd 6466 9dbb 65e8 5a3d 5e1a 92bc
00000130: e51a bf3d 34ed ab3d 9fce 7a3c 3085 71bd
00000140: fb54 0b3d 1593 88bc 4518 5c3a 699f 1ebd
00000150: d25c 0dbd 10b0 7c3d f10b 9abc 9848 b43b
00000160: e6f7 02bd b666 ef3a 2835 2abb 4422 e43c
00000170: bca5 49bd 0c78 923d dddb d7bc 3494 a93d
00000180: 4502 51bd ebd1 573d 6529 12bd 308c 8cbd
00000190: 6a9c a03d 0143 0e3d 99a9 a9bd 6b49 453d
000001a0: a707 493d f8cf d23a 2bda 3c3d dd50 613d
000001b0: 223c cb3b cd1f 86bc 5aa7 48bd 70ff a13c
000001c0: fd00 d8bb 0cb3 f53c c03e 903d 3e58 513d
000001d0: fa59 5bbd f47b 743d eda4 45bd caf9 c5bc
000001e0: d4ba b93c e66f 183d 385d afbd cc35 28bd
000001f0: 9cd4 06bd c200 abbc fa79 3d3c 9564 233d
00000200: c290 87bd 5f74 643d 3059 8e3d 7ba4 973d
00000210: 4691 77bc 75e5 9dbd b7b0 c93c f1e5 a0bd
00000220: a0c3 89bd df76 00bc 935e 6abd c7e2 3ebd
00000230: 737a 203d 0431 06bc 1fe7 60bd 271d 913d
00000240: 1056 93bc 9091 84bd ad26 773c f955 6fbd
00000250: 86f0 90bd d494 ebbc e9db 6ebd c866 853d
00000260: c871 17bb e84e f9bc dba4 48bc 6208 05ba
00000270: d78d 443d 4522 a93a 3a4b b23d 2edf 6abd
00000280: 3239 1a3d 0485 81bc 8fed 973d 920b d73d
00000290: c9a3 ca3c 9803 80bd 1fab c3bb 09a8 69bd
000002a0: 2482 74bd 758d 913d 2f70 31bc 0d0c 18bd
000002b0: 78ce 6d3d 5827 af3d 8b0b 33bc 30e9 c23c
000002c0: faa1 343d 398b 8ebd 033f 083e c171 0a3d
000002d0: e756 c73c a575 cabc 8589 22bd d680 86ba
000002e0: bf91 363d 3a28 113b 3299 40bd 79c0 773d
000002f0: 3eb8 863d e4a4 24bd bc2d adbd e961 b5bc
00000300: 66d2 8d3a 6c66 9a3d 586c 63bc 5432 d4bc
00000310: 5688 c6bc 9d4f 01bd 4172 37bd 61bb 3e3d
00000320: 6296 123d dce6 9ebc dfde 8b3d 59ea 853d
00000330: 5e71 973d 21e0 883d 78fb b0bc 0da9 98bd
00000340: a2d2 0b3d 308b 9c3c 3462 e1bc dd23 763d
00000350: ba4a 67bd 006e 8e3d 4dc0 37bd 4d11 043d
00000360: a8b1 98bb 2241 543c ba6a 9b3d e7ee ccbc
00000370: 142d 633d cc4b b03d cbc9 45bd 8504 8e3d
00000380: 1967 89bd 9940 9c3d 1c1b be3c f71e a7bc
00000390: 3b54 183a 84bc 303d 4679 b33d de6e 53bd
000003a0: 5ada ccbc 19b3 ff3d 4fdb 4a3d 4556 2ebd
000003b0: bd21 90bc f3e5 38bc 3d6c 863d 1e75 82bc
000003c0: 83c9 88bd 9082 58bc cfb7 1d3d d321 dfbc
000003d0: 7d84 0e3d 3e91 0a3d 1a66 953d 998b 163d
000003e0: 72a3 11bc ad79 44bd e666 883d 39a3 2cbd
000003f0: 3044 8f3d 51b5 5e3d 2b1d 07bd 452d 8ebd

lstm.bias_hh_l0 f4 [512]
-0.030369291 0.084254466 0.066419505 0.062884964 0.0053814556 0.0967062 0.0010680433 -0.07474291
-0.0014872568 0.049177174 0.069425225 0.027888369 -0.07016571 0.049898434 -0.049720373 0.072631866
0.054319426 0.023162138 -0.026868215 -0.07109127 -0.03962163 -0.012477505 -0.043322776 0.036334936
-0.011853296 -0.07487977 0.055683307 -0.047693785 0.02477624 -0.026852557 0.06467046 -0.07234338
-0.04769355 0.012846265 0.036710285 -0.026323007 -0.052251216 -0.013445371 -0.039422844 0.00400296
-0.07320425 -0.0023620778 0.077260144 -0.05555445 -0.00413681 0.067976125 -0.014454567 -0.05055998
-0.0126055535 0.023870805 0.01527253 -0.036568902 -0.017771618 -0.05611403 -0.0027637584 -0.060205277
-0.04777283 -0.028252855 0.087209 0.03521975 -0.060365718 -0.027803928 -0.009700124 -0.056717224
0.050713237 -0.05789976 -0.086585104 0.029232636 -0.09303803 0.035291843 -0.06390853 0.07922603
-0.013772094 -0.011116084 -0.0118836975 0.014389166 0.0016935791 -0.072535716 -0.053702384 -0.01550159
-0.00842162 0.024884589 0.039297115 -0.069127314 -0.08649531 0.006580303 -0.0059327483 0.061092015
0.022071114 0.040190864 -0.07122463 -0.02271213 -0.045973234 0.001567671 -0.039767344 0.034732226
-0.07910474 0.006117891 -0.029388426 0.007198787 0.055620056 -0.055576887 -0.031036686 -0.019470286
0.04821589 0.0831628 0.029528938 -0.080038026 0.061254196 0.046033017 -0.0294075 0.06751632
0.043549832 0.06280347 0.030306902 0.023422627 0.052330364 0.02299042 -0.04856104 -0.06756713
0.07030393 0.043262973 -0.069360636 -0.032373164 -0.023659755 0.017311027 -0.017397018 -0.016208855
-0.032791007 0.081930764 0.04986172 0.06135106 -0.07858181 0.05578116 -0.067452356 0.03945064
-0.046854693 -0.0039321957 -0.035199113 0.042204063 0.05363533 0.002742253 -0.053665236 -0.0033055563
-0.026725758 -0.023432193 0.050156213 -0.052568477 0.016221225 0.018045615 -0.081834175 0.04590818
0.035729885 -0.0069307964 -0.049293447 0.053764794 0.009135403 0.045622226 -0.03588001 0.007573283
-0.05772698 -0.011123905 -0.057301875 0.02560068 -0.015189514 0.03300585 -0.03275881 0.010191526
-0.047650848 -0.0724257 0.061618976 0.020168679 0.07335798 0.036227718 0.0052686827 -0.0129381865
-0.016574312 -0.08651093 0.06740886 -0.07276702 0.040408187 -0.07925437 0.04590738 0.052653786
-0.061792716 0.04612982 0.029315345 0.08742288 0.016068464 0.08693585 0.06445217 -0.062284097
0.0016736091 0.007354846 0.021301122 0.009768207 -0.00044882952 0.0748749 -0.03636995 0.086743996
-0.012019172 0.04050503 -0.042620413 -0.05461491 0.009729568 0.013920746 0.08582752 0.0152444625
0.017737933 0.03308016 -0.009807369 0.020334296 0.043565538 -0.07302644 0.027933003 0.021605873
0.030697277 0.08621425 -0.047197178 -0.010163639 -0.07450341 -0.009852531 0.08014091 -0.043048747
0.009255174 0.012766033 -0.07251263 -0.032532204 0.07233601 0.062423464 -0.045531947 -0.03231088
-0.052529335 0.13965017 -0.0024358109 -0.03272375 -0.06295979 -0.064948864 0.1035277 0.022708036
-0.056046583 -0.006917678 0.021303304 0.020011429 -0.02366349 0.06060886 -0.009667286 0.040380947
0.048522335 -0.06589699 -0.0034159387 -0.08621531 0.0074934145 0.054792203 0.0348092 -0.062043153
00000000: 05c9 f8bc 9b8d ac3d f306 883d d5c9 803d
00000010: ec56 b03b e60d c63d 96fd 8b3a d012 99bd
00000020: 0ff0 c2ba 016e 493d d02e 8e3d 2676 e43c
00000030: 0ab3 8fbd 4d62 4c3d 97a7 4bbd 04c0 943d
00000040: 0c7e 5e3d 86be bd3c bb1a dcbc 4d98 91bd
00000050: 4a4a 22bd 736e 4cbc 3973 31bd f1d3 143d
00000060: 5434 42bc 915a 99bd 2e14 643d 8f5a 43bd
00000070: 8bf7 ca3c e5f9 dbbc f271 843d c428 94bd
00000080: 505a 43bd 2479 523c 865d 163d 59a3 d7bc
00000090: 5f05 56bd f949 5cbc d979 21bd 432b 833b
000000a0: 1cec 95bd 17cd 1abb 913a 9e3d 108d 63bd
000000b0: 148e 87bb 1137 8b3d d9d2 6cbc fb17 4fbd
000000c0: 8687 4ebc b58c c33c a239 7a3c 46c9 15bd
000000d0: c995 91bc d3d7 65bd 2c20 35bb cf99 76bd
000000e0: 71ad 43bd 8872 e7bc a29a b23d 9642 103d
000000f0: 0b42 77bd 10c5 e3bc 45ed 1ebc 5250 68bd
00000100: afb8 4f3d 4c28 6dbd 8853 b1bd 4879 ef3c
00000110: b98a bebd 2e8e 103d 7ae2 82bd 4241 a23d
00000120: 59a4 61bc 3c20 36bc d7b3 42bc 89c0 6b3c
00000130: 16fb dd3a 9b8d 94bd 08f7 5bbd 62fa 7dbc
00000140: d6fa 09bc c4da cb3c 03f6 203d 9f92 8dbd
00000150: 7424 b1bd 959f d73b 8067 c2bb 9f3b 7a3d
00000160: 7bce b43c 2d9f 243d 38de 91bd ca0e babc
00000170: 6e4e 3cbd 4f7a cd3a 15e3 22bd 6143 0e3d
00000180: aa01 a2bd 9778 c83b ffbf f0bc cde3 eb3b
00000190: dbd1 633d 97a4 63bd a640 febc 2680 9fbc
000001a0: 067e 453d 4251 aa3d ace6 f13c faea a3bd
000001b0: aee5 7a3d 1e8d 3c3d ffe7 f0bc ff45 8a3d
000001c0: 4f61 323d 1b9f 803d 2e46 f83c cfe0 bf3c
000001d0: 5d58 563d 6856 bc3c f1e7 46bd a360 8abd
000001e0: 82fb 8f3d 8434 313d f30c 8ebd b999 04bd
000001f0: 1ad2 c1bc dbcf 8d3c 3184 8ebc 6fc8 84bc
00000200: dd4f 06bd 51cb a73d ce3b 4c3d 404b 7b3d
00000210: 80ef a0bd c97a 643d 7624 8abd ff96 213d
00000220: b5ea 3fbd a6d9 80bb f22c 10bd 2bde 2c3d
00000230: b8b0 5b3d 5fb7 333b 14d0 5bbd 08a2 58bb
00000240: faef dabc dff4 bfbc 9a70 4d3d 0b52 57bd
00000250: 60e2 843c 66d4 933c ad98 a7bd 370a 3c3d
00000260: 8059 123d bc1b e3bb ede7 49bd 7938 5c3d
00000270: a8ac 153c 5fde 3a3d ebf6 12bd 4d29 f83b
00000280: 2073 6cbd 0a41 36bc 5fb5 6abd 84b8 d13c
00000290: 70dd 78bc 2431 073d 1a2e 06bd 5cfa 263c
000002a0: 892d 43bd ed53 94bd 2e64 7c3d c938 a53c
000002b0: b53c 963d 8463 143d eaa4 ac3b b0fa 53bc
000002c0: dac6 87bc a42c b1bd a80d 8a3d e006 95bd
000002d0: 0e83 253d 1d50 a2bd 6009 3c3d 7fab 573d
000002e0: 5c1a 7dbd 9ff2 3c3d bc26 f03c c40a b33d
000002f0: 03a2 833c 6c0b b23d 80ff 833d 9c1d 7fbd
00000300: 015d db3a ec00 f13b b17f ae3c d40a 203c
00000310: e150 ebb9 0358 993d a8f8 14bd d6a6 b13d
00000320: 10ec 44bc 9ae8 253d be92 2ebd e2b3 5fbd
00000330: c468 1f3c d713 643c 57c6 af3d e9c3 793c
00000340: 244f 913c 107f 073d 16af 20bc 1c94 a63c
00000350: c771 323d e38e 95bd c1d3 e43c cdfe b03c
00000360: db78 fb3c 1991 b03d d451 41bd 6485 26bc
00000370: 3e95 98bd 836c 21bc eb20 a43d e253 30bd
00000380: 03a3 173c a028 513c 8081 94bd 7d40 05bd
00000390: e724 943d bfaf 7f3d b57f 3abd 6a58 04bd
000003a0: 0029 57bd 7400 0f3e 20a2 1fbb 5709 06bd
000003b0: 10f1 80bd e903 85bd 5506 d43d 3406 ba3c
000003c0: 1a91 65bd b0ad e2bb 4484 ae3c 02ef a33c
000003d0: efd9 c1bc ff40 783d 8963 1ebc 7e66 253d
000003e0: 5bbf 463d 00f5 86bd f1dd 5fbb a791 b0bd
000003f0: 518b f53b ca6d 603d 1794 0e3d f620 7ebd

lstm.weight_ih_l1 f4 [512, 128]
0.03333744 -0.028528864 0.015162929 -0.012214081 0.062836036 0.031125946 -0.036002316 -0.024712952
0.00016662422 0.058304496 -0.013226194 0.06317987 -0.046432227 -0.046607487 -0.094194405 -0.07551153
0.029520717 -0.08717648 0.02539197 0.052947737 -0.0021886225 -0.04468266 -0.009265225 -0.05914452
-0.032599874 0.033160295 0.003680031 -0.060950663 -0.011046972 -0.060233746 0.024056558 0.00093355076
-0.026448611 0.09444579 -0.00068628165 0.04076199 0.063796915 0.045051277 -0.024789194 0.08429266
0.07166575 0.081067994 -0.072251536 -0.049505547 0.0058354135 0.038050875 -0.080173776 0.07046933
-0.09931913 -0.0015505155 -0.10171441 0.053676073 -0.0065544564 -0.02398083 0.06531829 0.03883075
-0.054654304 -0.008075402 -0.013206915 -0.05920607 0.014240303 -0.028371077 0.014090524 -0.002652448
0.04836953 0.0037910524 0.04592405 0.04739017 0.0072293025 -0.0052539418 0.043500435 -0.049493782
-0.001762386 0.016803212 -0.09901703 -0.03606142 0.02237083 0.09345264 -0.04182983 0.027801806
0.038703173 0.015474759 -0.035724353 0.09840025 0.021795329 0.05675017 0.031384993 0.08819275
0.039988086 -0.040932283 0.07415637 -0.0018993058 0.037632044 0.007428959 0.08488891 -0.026765008
0.02912499 -0.038899835 -0.034186985 -0.020179037 0.01391121 -0.03266948 0.010897932 0.1025534
0.07594696 -0.02098302 0.019103374 -0.08310184 0.017962048 -0.077378705 0.08849072 0.06984348
0.0029949655 -0.10018572 -0.012866611 0.02909071 -0.038983695 -0.046393994 -0.108959325 0.010434419
-0.022418685 0.045900144 -0.046597578 0.06401673 -0.0064594573 -0.1035333 0.034995623 0.047753148
-0.07168989 0.058009814 -0.04787117 0.06544503 -0.03561979 0.074571714 -0.10960514 -0.03331647
0.034047347 0.03330434 -0.0054161306 -0.054341346 0.07569406 0.004684764 0.052306972 0.0015085533
0.02362501 0.05870774 0.055118416 0.0544379 -0.066273116 0.001179849 0.039121717 -0.095451474
-0.04103779 -0.065372035 -0.013192448 0.062277995 0.099148065 0.03281563 0.015320959 -0.032751553
0.029147074 -0.012758283 -0.034208536 0.00060830376 0.06236473 -0.023462921 -0.025360303 -0.011564051
0.043041866 -0.025515039 -0.03866953 0.031277724 -0.05687318 -0.068905815 0.030213684 -0.07598392
0.028464518 -0.008507762 -0.061559238 0.061447773 0.042411763 0.06658628 0.06408074 -0.07271308
0.02690207 -0.090848126 0.07526457 0.08383572 0.045592554 0.09282823 0.04022031 0.009378081
-0.084300235 -0.03284662 0.09785168 -0.0009402713 0.075447954 -0.015949694 0.055603147 0.0796759
-0.04356162 0.08706035 0.014641257 -0.04220501 0.015377813 0.0051309867 0.05481517 -0.06777684
-0.0016446231 0.09774548 -0.050135672 0.010567623 0.06156946 0.08124361 0.033228636 0.0123098865
0.06250427 0.05934585 -0.08096127 -0.01079085 0.06384994 0.09779946 -0.063335456 0.0177905
0.015770026 -0.09817736 -0.0829555 -0.024652017 -0.0059899627 -0.040241096 -0.03527058 0.006840385
0.026165912 -0.05567572 -0.029535297 -0.0813752 0.030118726 -0.0574889 -0.012446188 -0.080190204
0.04828382 -0.02404678 0.04367778 0.06473232 -0.020643976 0.040248852 -0.0608722 0.0039822846
-0.054148868 -0.07031021 -0.06881172 -0.05347898 0.057915922 -0.002020643 -0.047743484 -0.013436447
00000000: d78c 083d 5db5 e9bc ef6d 783c 921d 48bc
00000010: 2eb0 803d d7fb fe3c 2a77 13bd d172 cabc
00000020: d9b7 2e39 b2d0 6e3d aeb2 58bc 7364 813d
00000030: b82f 3ebd 7ee7 3ebd ffe8 c0bd caa5 9abd
00000040: 6ed5 f13c 9589 b2bd d202 d03c badf 583d
00000050: fe6e 0fbb 2a05 37bd 2ccd 17bc 8641 72bd
00000060: 7287 05bd 17d3 073d ad2c 713b 67a7 79bd
00000070: 5cfe 34bc a9b7 76bd 4212 c53c 88b9 743a
00000080: c2aa d8bc cb6c c13d 95e7 33ba 0bf6 263d
00000090: f5a7 823d b087 383d b512 cbbc a1a1 ac3d
000000a0: 7ec5 923d fa06 a63d 9df8 93bd 54c6 4abd
000000b0: ff36 bf3b 3cdb 1b3d 2632 a4bd 3952 903d
000000c0: d467 cbbd ab3a cbba a54f d0bd 71db 5b3d
000000d0: c4c6 d6bb 7273 c4bc 98c5 853d fe0c 1f3d
000000e0: 31dd 5fbd b14e 04bc d161 58bc 1082 72bd
000000f0: 2950 693c 766a e8bc f1db 663c b1d4 2dbb
00000100: 211f 463d 4e73 783b db1a 3c3d 321c 423d
00000110: c9e3 ec3b 4229 acbb 832d 323d feb9 4abd
00000120: dcff e6ba e4a6 893c 71c9 cabd 24b5 13bd
00000130: 0843 b73c 1964 bf3d c155 2bbd 9dc0 e33c
00000140: 3887 1e3d d889 7d3c b353 12bd 1286 c93d
00000150: 1e8c b23c de72 683d 8d8d 003d 679e b43d
00000160: 8cca 233d 9ca8 27bd 4bdf 973d 21f2 f8ba
00000170: 0f24 1a3d a06e f33b 3dda ad3d 4a42 dbbc
00000180: 8897 ee3c 6f55 1fbd a707 0cbd 824e a5bc
00000190: d8eb 633c 6fd0 05bd 3d8d 323c 8407 d23d
000001a0: 148a 9b3d 95e4 abbc ae7e 9c3c 4c31 aabd
000001b0: 2525 933c ba78 9ebd 9f3a b53d 190a 8f3d
000001c0: 2f47 443b 2c2e cdbd 7ace 52bc a44f ee3c
000001d0: 5ead 1fbd a107 3ebd 1126 dfbd 20f5 2a3c
000001e0: 64a7 b7bc ca01 3c3d 1add 3ebd 341b 833d
000001f0: dba9 d3bb 4409 d4bd 9257 0f3d ce98 433d
00000200: 26d2 92bd b39b 6d3d 8f14 44bd 0b08 863d
00000210: 0fe6 11bd 0eb9 983d a978 e0bd da76 08bd
00000220: 3b75 0b3d 226a 083d cc79 b1bb 0895 5ebd
00000230: 7d05 9b3d a682 993b d63f 563d a6ba c53a
00000240: 3d89 c13c 8777 703d d9c3 613d 47fa 5e3d
00000250: 33ba 87bd 2aa5 9a3a 183e 203d 107c c3bd
00000260: 3e17 28bd c6e1 85bd 2325 58bc 3617 7f3d
00000270: 240e cb3d af69 063d c204 7b3c 7e26 06bd
00000280: d8c5 ee3c 1e08 51bc 401e 0cbd 9376 1f3a
00000290: 2972 7f3d 5035 c0bc 69c0 cfbc 2577 3dbc
000002a0: ab4c 303d ea04 d1bc f163 1ebd 121d 003d
000002b0: daf3 68bd 7e1e 8dbd b082 f73c 759d 9bbd
000002c0: 6c2e e93c 2464 0bbc 8a25 7cbd a9b0 7b3d
000002d0: f5b7 2d3d 635e 883d c33c 833d 98ea 94bd
000002e0: bb61 dc3c 950e babd 5024 9a3d 10b2 ab3d
000002f0: 42bf 3a3d ba1c be3d 0dbe 243d 86a6 193c
00000300: 9aa5 acbd 2d8a 06bd 7666 c83d 8a7c 76ba
00000310: 7584 9a3d efa8 82bc 20c0 633d 1e2d a33d
00000320: ab6d 32bd b24c b23d e2e1 6f3c 29df 2cbd
00000330: 39f3 7b3c d621 a83b df85 603d 95ce 8abd
00000340: 6590 d7ba c82e c83d 105b 4dbd d323 2d3c
00000350: 4230 7c3d 0d63 a63d c01a 083d 68af 493c
00000360: 3d02 803d a214 733d 06cf a5bd 1bcc 30bc
00000370: c2c3 823d 154b c83d 05b6 81bd 62bd 913c
00000380: 2430 813c 3611 c9bd 93e4 a9bd 07f3 c9bc
00000390: 7347 c4bb d9d3 24bd e277 10bd 4f25 e03b
000003a0: e559 d63c 390c 64bd 02f4 f1bc 0aa8 a6bd
000003b0: 8cbb f63c 7b79 6bbd 19eb 4bbc c33a a4bd
000003c0: 41c5 453d c1fd c4bc 79e7 323d 6192 843d
000003d0: 8e1d a9bc fbdb 243d 2155 79bd d37d 823b
000003e0: 34cb 5dbd cdfe 8fbd 29ed 8cbd c60c 5bbd
000003f0: 3f39 6d3d c46c 04bb ac8e 43bd 8b24 5cbc

lstm.weight_hh_l1 f4 [512, 128]
-0.06751375 -0.04847208 -0.08015984 0.06990971 -0.05210283 -0.0113305105 -0.05397746 -0.013120644
0.04681572 -0.07252998 -0.052330125 0.0058028353 -0.015854763 -0.056718964 -0.06757202 0.07760324
-0.027118307 -0.015725635 -0.017355105 -0.040325746 -0.10883406 -0.014228223 0.018006636 0.0125695225
0.02805507 0.04638616 0.0056904117 -0.020905146 -0.016054753 -0.09423859 -0.041076418 0.050257735
0.0777636 -0.03258947 -0.043342892 0.051731832 -0.04853031 -0.04456052 0.035246566 -0.0785187
-0.016324934 -0.057583816 0.033833448 0.017854368 0.09666354 -0.06400366 0.02648955 -0.07757949
0.0033347975 -0.019158363 0.0149380695 -0.011895823 -0.098084465 -0.00024085402 0.030550888 0.0044918437
-0.09023827 0.06607793 -0.0290881 0.07696272 -0.08648471 -0.033629652 0.09981712 -0.02628348
-0.024670724 0.024698395 -0.06659239 0.10597315 0.02504046 0.09511494 -0.06504133 0.030721232
-0.101577304 0.024123536 0.01741382 -0.046837352 -0.08508095 -0.06284024 -0.013065645 0.021436233
0.031080158 -0.09072419 0.020317204 0.03929177 -0.039083634 0.013476884 0.01896441 -0.046785798
0.000447689 -0.04902496 -0.054231446 0.095347896 0.014547439 -0.047670886 -0.10618877 0.056661695
0.016389433 -0.05279 -0.07933372 -0.09340397 0.021185331 0.072169796 0.01603387 -0.036372993
-0.0506247 0.030439982 0.101215996 0.002910534 0.009742415 0.03294253 -0.07511123 0.018745964
0.013016476 -0.01638249 -0.044989537 0.02805967 0.017371599 -0.0677596 0.08527413 -0.055344604
0.0047678053 -0.02471587 -0.015221523 0.07574692 -0.0002844973 0.024275752 0.006670567 -0.095147476
0.06469712 -0.04371168 0.04610258 -0.04216426 0.100732 -0.013090993 0.051964425 0.07520917
-0.08198988 0.036379494 0.04595225 -0.08683314 -0.05503134 -0.04155747 0.005368918 0.046468325
-0.06312437 0.035584144 0.102124244 0.0025516835 -0.10062557 0.01671523 -0.017668063 0.05817717
0.04692011 -0.021315072 -0.05369807 -0.06863657 -0.06370704 0.060318906 0.080613606 0.04289892
-0.039147876 -0.047775377 0.003643354 -0.008344604 -0.021290276 0.10705143 -0.043756556 -0.03626563
-0.060532406 0.049406454 -0.058274362 0.080913685 -0.019610811 0.03510836 0.10765908 -0.022931114
-0.0943892 0.003349627 -0.01490036 0.042068295 0.041775383 -0.04182166 -0.032282464 -0.09880383
-0.02612827 0.051746152 -0.059423268 0.07140053 0.0025509915 0.029750079 0.055428807 -0.05547182
0.09431107 0.02952194 -0.012144199 -0.037018504 -0.10011756 0.050683692 -0.034666687 0.010578489
-0.055368528 -0.0459793 0.0029561715 -0.0931076 0.021460338 -0.0655499 -0.015401355 0.055117555
-0.020437514 -0.054820627 -0.0013592405 0.028106922 0.04630646 -0.028832566 -0.09150069 -0.032785434
-0.06338985 -0.059782315 0.04213687 -0.05065187 0.043105185 -0.015582814 -0.0072245602 -0.072520465
0.034920614 -0.05506273 -0.062284373 0.038087897 -0.06529804 -0.06183265 0.099330425 0.015665649
-0.06353165 -0.05843775 -0.021060444 -0.099210955 0.08233493 -0.07678796 -0.035149965 -0.018810311
0.047814555 -0.063914895 0.10096398 -0.03553351 -0.0065706987 -0.007850608 -0.0020786806 0.079726525
0.055991314 0.00014993282 -0.045661457 -0.023624443 -0.022552213 -0.047303565 -0.008470032 -0.08136083
00000000: a644 8abd a98a 46bd d82a a4bd d22c 8f3d
00000010: c769 55bd 9ba3 39bc 7817 5dbd f8f7 56bc
00000020: d7c1 3f3d 998a 94bd 1d58 56bd b625 be3b
00000030: d9e1 81bc 2552 68bd 3363 8abd 73ee 9e3d
00000040: 3627 debc 0cd3 80bc 4b2c 8ebc 9c2c 25bd
00000050: 64e4 debd 7e1d 69bc a782 933c 66f0 4d3c
00000060: bfd3 e53c 6aff 3d3d a276 ba3b 4541 abbc
00000070: 4285 83bc 2900 c1bd bf3f 28bd 0edb 4d3d
00000080: 8642 9f3d 897c 05bd 5188 31bd c2e4 533d
00000090: b8c7 46bd 1885 36bd b45e 103d 6ace a0bd
000000a0: debb 85bc 02dd 6bbd f194 0a3d 5343 923c
000000b0: 89f7 c53d 5a14 83bd 9d00 d93c ffe1 9ebd
000000c0: 9e8c 5a3b 00f2 9cbc cebe 743c b3e6 42bc
000000d0: 82e0 c8bd c28d 7cb9 db45 fa3c 5130 933b
000000e0: d8ce b8bd de53 873d 2b4a eebc a19e 9d3d
000000f0: e51e b1bd 3fbf 09bd eb6c cc3d 7450 d7bc
00000100: 421a cabc 4a54 ca3c 9761 88bd 7308 d93d
00000110: a721 cd3c 9fcb c23d 6434 85bd 18ab fb3c
00000120: c307 d0bd b99e c53c 6da7 8e3c 86d8 3fbd
00000130: ec3e aebd 62b2 80bd 4911 56bc 0a9b af3c
00000140: d19b fe3c 9bcd b9bd 4470 a63c 68f0 203d
00000150: 2916 20bd 26ce 5c3c 405b 9b3c 77a2 3fbd
00000160: cdb7 ea39 65ce 48bd cb21 5ebd c245 c33d
00000170: 6258 6e3c 8c42 43bd 7f79 d9bd 1816 683d
00000180: 2243 863c 543a 58bd b879 a2bd 954a bfbd
00000190: dc8c ad3c c2cd 933d 7659 833c d9fb 14bd
000001a0: d85b 4fbd 455d f93c 554a cf3d a8be 3e3b
000001b0: a69e 1f3c bfee 063d ebd3 99bd 2391 993c
000001c0: 0f43 553c 9234 86bc f346 38bd 65dd e53c
000001d0: e24e 8e3c 8cc5 8abd 34a4 ae3d 06b1 62bd
000001e0: 403b 9c3b f078 cabc b263 79bc 3421 9b3d
000001f0: 9528 95b9 f1dd c63c c694 da3b aedc c2bd
00000200: ec7f 843d 050b 33bd 0fd6 3c3d 6eb4 2cbd
00000210: 944c ce3d 9b7b 56bc a6d8 543d 4407 9a3d
00000220: 4fea a7bd aa02 153d 6d38 3c3d 93d5 b1bd
00000230: 8b68 61bd 2a38 2abd c0ed af3b 9255 3e3d
00000240: 5a47 81bd aec0 113d 8426 d13d 253a 273b
00000250: c714 cebd 61ee 883c 9dbc 90bc 2f4b 6e3d
00000260: 4d2f 403d f29c aebc 82f2 5bbd 5491 8cbd
00000270: d678 82bd f510 773d bf18 a53d c7b6 2f3d
00000280: 8659 20bd 1db0 43bd 56c5 6e3b ceb7 08bc
00000290: f268 aebc c83d db3d 133a 33bd 458b 14bd
000002a0: d4f0 77bd 6c5e 4a3d 19b1 6ebd 13b6 a53d
000002b0: daa6 a0bc c9cd 0f3d 5d7c dc3d 08da bbbc
000002c0: 204f c1bd 6a85 5b3b a420 74bc ce4f 2c3d
000002d0: aa1c 2b3d 304d 2bbd 9e3a 04bd aa59 cabd
000002e0: f40a d6bc c6f3 533d d065 73bd 713a 923d
000002f0: 892e 273b 70b6 f33c 5109 633d 6b36 63bd
00000300: 2a26 c13d ffd7 f13c 76f8 46bc b7a0 17bd
00000310: 6f0a cdbd b499 4f3d a8fe 0dbd 6651 2d3c
00000320: 1cca 62bd ca54 3cbd 54bc 413b 33af bebd
00000330: 97cd af3c 073f 86bd f755 7cbc f2c2 613d
00000340: 936c a7bc 988b 60bd 8b28 b2ba 7d40 e63c
00000350: d8ab 3d3d 4632 ecbc b764 bbbd 054a 06bd
00000360: 8ad2 81bd 4dde 74bd b697 2c3d 5678 4fbd
00000370: 108f 303d 0f4f 7fbc 01bc ecbb 9c85 94bd
00000380: eb08 0f3d 7589 61bd e61d 7fbd 0e02 1c3d
00000390: fbba 85bd 3c44 7dbd c06d cb3d 3f55 803c
000003a0: e21c 82bd 6c5c 6fbd f486 acbc 1d2f cbbd
000003b0: 379f a83d 0243 9dbd 69f9 0fbd 1518 9abc
000003c0: 32d9 433d d0e5 82bd 34c6 ce3d 968b 11bd
000003d0: 044f d7bb d69f 00bc 793a 08bb a947 a33d
000003e0: 2657 653d 4937 1d39 8207 3bbd 0c88 c1bc
000003f0: 6bbf b8bc 62c1 41bd e4c5 0abc 82a0 a6bd

lstm.bias_ih_l1 f4 [512]
-0.019243352 0.10453513 -0.06833762 0.023981933 -0.06587055 0.06535854 0.066451855 0.06732258
-0.025279993 0.007102913 -0.008591523 0.05514665 -0.025221957 -0.038936295 -0.01706106 -0.055643145
0.07961172 0.016092872 -0.016582046 0.011262751 0.04073395 -0.045065105 -0.044893824 0.008908115
0.066177376 -0.020152904 -0.01515758 0.10084876 0.0076617827 -0.0012683234 0.0514078 -0.011203871
0.087754786 -0.015619558 -0.019260125 0.10319547 0.07475267 0.063499175 0.09366007 0.03935492
-0.0002157852 0.1088149 -0.06824776 0.0055315383 0.057079766 -0.03326452 0.09419175 0.08052902
0.07102747 0.061610665 0.048944402 0.033400115 -0.039181188 0.07095846 -0.048899475 0.09516738
-0.039490785 -0.0076804273 -0.035363637 0.011235395 0.049211137 0.08051325 -0.057389863 0.037577774
0.056969848 0.067172565 0.030962037 0.07848901 0.020575378 0.047859352 0.0151807275 0.021741584
0.08221317 -0.009713603 -0.026859311 -0.0063485447 -0.06644028 0.100116245 0.013733262 0.044005796
0.042110972 0.023546822 0.05209299 0.09122259 -0.0042549935 -0.04216617 0.037988096 -0.07525592
0.045573093 0.009215538 -0.046174854 -0.0100282 0.024311494 -0.024296276 0.008419916 -0.06315337
0.020601237 0.08514579 0.100674644 0.045322232 0.04406103 0.095962964 -0.049979422 -0.01454523
0.025671922 -0.04354909 0.020627376 -0.050005548 0.037998725 0.06595268 0.032431565 0.030422896
-0.06262811 0.06701988 0.093054235 -0.01977268 -0.004782878 0.016973231 0.06321165 0.0829387
0.052765943 0.06276598 0.082904 -0.033864688 -0.020431586 0.042481497 0.029470228 0.07132427
0.09354683 -0.0013279185 -0.058911152 -0.046518777 0.06725494 0.03853389 -0.034184527 0.004191768
0.059490856 0.0075360374 -0.055327587 -0.024571484 0.09691481 0.079837725 -0.017127989 -0.030225238
0.061982345 -0.043398082 0.022722168 0.0018486659 0.04226699 0.07507336 0.025428908 0.0077275834
0.068396576 -0.00725788 0.043559827 -0.0602771 -0.018946666 -0.0384888 0.037646823 0.03505093
-0.043726675 -0.028735157 -0.0005911543 0.030978866 0.08488757 0.10010064 0.019706493 0.07421125
-0.06706844 0.021511644 0.04538612 0.054649148 0.04716036 0.10710965 -0.026148783 -0.06420544
-0.020141795 -0.04129654 -0.061313808 0.08666769 -0.012266668 -0.019067084 -0.0013557634 0.10715199
0.017759088 0.06053004 -0.026716826 -0.02548718 0.088251606 -0.054464757 0.033542287 0.0025960063
0.07913755 -0.016032428 0.07575306 0.05956006 -0.004283095 0.010460199 -0.019769754 0.09281534
0.014040433 0.048962895 -0.0054054204 0.0357476 -0.060292702 0.07548625 -0.033575967 -0.028295215
0.03915458 0.0517938 -0.049414948 0.08167348 -0.04680159 0.10111784 0.038860172 0.096746385
0.08887425 -0.06854105 -0.03730227 -0.024334814 0.033310644 -0.008949089 0.058831073 0.026158206
-0.008947526 0.08713306 0.0922659 0.014265229 0.0720406 0.092549846 0.08206014 0.09922575
0.041917488 -0.03254858 0.02863157 -0.026910258 0.008490622 0.08482039 -0.029040894 -0.06606502
0.041952454 0.06717537 0.08724453 -0.030483846 0.017797109 -0.02507527 0.06880203 0.0002926836
0.045406982 0.03303816 -0.026001588 0.012001073 0.055637944 0.108962454 0.09506485 -0.06286988
00000000: 3ca4 9dbc 8416 d63d 98f4 8bbd c275 c43c
00000010: 24e7 86bd b3da 853d e917 883d 6ce0 893d
00000020: fd17 cfbc 8ebf e83b 76c3 0cbc 74e1 613d
00000030: 479e cebc aa7b 1fbd a3c3 8bbc 11ea 63bd
00000040: 780b a33d 33d5 833c 12d7 87bc 6787 383c
00000050: a4d8 263d 3096 38bd 96e2 37bd 58f3 113c
00000060: 0188 873d b417 a5bc 8057 78bc cb89 ce3d
00000070: b10f fb3b df3d a6ba fc90 523d 7190 37bc
00000080: c8b8 b33d 2de9 7fbc 69c7 9dbc 2658 d33d
00000090: ee17 993d db0b 823d dad0 bf3d a032 213d
000000a0: 6644 62b9 59da de3d 7bc5 8bbd e841 b53b
000000b0: 79cc 693d 6140 08bd 9be7 c03d 66ec a43d
000000c0: da76 913d 775b 7c3d ed79 483d 8fce 083d
000000d0: 747c 20bd ab52 913d d14a 48bd 1ee7 c23d
000000e0: 17c1 21bd 18ac fbbb 76d9 10bd aa14 383c
000000f0: 9e91 493d 21e4 a43d a211 6bbd 27eb 193d
00000100: 3759 693d c591 893d 19a4 fd3c d9be a03d
00000110: b28d a83c 2b08 443d 96b8 783c 681b b23c
00000120: 615f a83d ce25 1fbc 0f08 dcbc 7407 d0bb
00000130: d711 88bd bf09 cd3d 7a01 613c 6c3f 343d
00000140: 8e7c 2c3d 44e5 c03c 765f 553d e9d2 ba3d
00000150: 796d 8bbb 6fb6 2cbd 6899 1b3d c71f 9abd
00000160: daaa 3a3d c5fc 163c d821 3dbd 524d 24bc
00000170: e628 c73c fc08 c7bc b0f3 093c 8e56 81bd
00000180: edc3 a83c ea60 ae3d 822e ce3d cea3 393d
00000190: 5779 343d 3b88 c43d 39b7 4cbd 1e4f 6ebc
000001a0: ec4d d23c 8860 32bd befa a83c 9ed2 4cbd
000001b0: 8da4 1b3d 3312 873d f6d6 043d 7039 f93c
000001c0: 2b43 80bd b841 893d 3893 be3d 51fa a1bc
000001d0: b0b9 9cbb 720b 8b3c 1c75 813d c4db a93d
000001e0: 1a21 583d 738b 803d 93c9 a93d b3b5 0abd
000001f0: 2460 a7bc 1401 2e3d 8c6b f13c 7512 923d
00000200: 7b95 bf3d 8d0d aeba d24c 71bd 798a 3ebd
00000210: f5bc 893d b6d5 1d3d 1305 0cbd 195b 893b
00000220: afac 733d ddf0 f63b 2e9f 62bd 234a c9bc
00000230: 467b c63d f681 a33d ff4f 8cbc eb9a f7bc
00000240: 33e1 7d3d 30c2 31bd d723 ba3c ef4e f23a
00000250: 2720 2d3d 10c0 993d 4950 d03c ab37 fd3b
00000260: 8113 8c3d 83d3 edbb ca6b 323d 1fe5 76bd
00000270: 0a36 9bbc 6fa6 1dbd 8e33 1a3d 9091 0f3d
00000280: be1a 33bd fe65 ebbc b2f7 1aba 64c7 fd3c
00000290: 89d9 ad3d 9001 cd3d 836f a13c 11fc 973d
000002a0: 2e5b 89bd 3039 b03c cce6 393d c9d7 5f3d
000002b0: 392b 413d 4e5c db3d f935 d6bc 247e 83bd
000002c0: 6800 a5bc 9026 29bd 3024 7bbd d47e b13d
000002d0: 22fa 48bc 9332 9cbc dfb3 b1ba 8172 db3d
000002e0: 827b 913c 59ee 773d 3fdd dabc 7eca d0bc
000002f0: 42bd b43d 7016 5fbd a363 093d c221 2a3b
00000300: de12 a23d 7056 83bc 6c24 9b3d 40f5 733d
00000310: 3459 8cbb 4161 2b3c 2ef4 a1bc f815 be3d
00000320: d809 663c 518d 483d f41f b1bb 136c 123d
00000330: 7bf5 76bd 8998 9a3d f486 09bd 5ecb e7bc
00000340: 8e60 203d bc25 543d 5467 4abd 6d44 a73d
00000350: 06b3 3fbd df16 cf3d d82b 1f3d f822 c63d
00000360: b403 b63d 405f 8cbd 44ca 18bd ce59 c7bc
00000370: be70 083d 339f 12bc daf8 703d bc49 d63c
00000380: a598 12bc d172 b23d e7f5 bc3d b5b8 693c
00000390: 068a 933d c68a bd3d 260f a83d df36 cb3d
000003a0: acb1 2b3d a951 05bd c18c ea3c e772 dcbc
000003b0: 401c 0b3c 50b6 ad3d 2be7 edbc 194d 87bd
000003c0: 56d6 2b3d 3e93 893d 43ad b23d 42b9 f9bc
000003d0: 3ecb 913c a76a cdbc 14e8 8c3d 5473 9939
000003e0: acfc 393d 0653 073d 4801 d5bc 26a0 443c
000003f0: 9de4 633d b527 df3d 5cb1 c23d ecc1 80bd
