learning/path_model.pt (torch, 811509 bytes, 10 tensors)

lstm.weight_ih_l0 f4 [512, 5]
000000 b4 1c 88 bd 23 27 e4 3c c7 4f 4b 3d b7 c6 7a bd
       -0.066461 0.027850693 0.04963663 -0.061224665
000010 36 3b 37 3d 76 45 8e bd d8 c3 6f bd 16 cf d4 3b
       0.044734202 -0.06946842 -0.05853638 0.006494413
000020 fc 60 9e 3d b8 7c 02 3c 32 c2 55 3d 73 66 a6 3b
       0.07733342 0.007964306 0.052187152 0.005078131
000030 af 8d 9f bd 7e 2c 97 3d 77 f8 58 3b 68 b4 b8 3d
       -0.07790696 0.07381533 0.003310708 0.09018785
000040 37 31 ca bd 32 f2 42 bd 6a 48 5e 3c c7 c4 c2 3d
       -0.09872668 -0.047594257 0.01356707 0.095101885
000050 f3 54 c8 bc 31 30 82 3b 91 67 ca bc ef 46 eb 3d
       -0.02445457 0.00397303 -0.024707587 0.11488139
000060 9f 57 cd 3d 65 62 a6 3b e3 e1 c4 bd 4b 55 bb bd
       0.10026478 0.0050776475 -0.09613397 -0.09147128
000070 23 5b 89 bd 27 ec 50 bd 17 72 11 3d 3c 22 4b 3d
       -0.06706836 -0.051006462 0.035509195 0.049593195
000080 77 13 46 3d c4 3c 9a bd 86 5f 79 bd e2 2d e9 3d
       0.048358407 -0.075311214 -0.060882114 0.113857046
000090 96 1f 50 bd b9 a4 0c bd 33 fe 0a bc 55 3e 32 3d
       -0.050811373 -0.03433678 -0.008483457 0.043516476
0000a0 00 0a 55 38 af b4 e9 3c fb f7 b9 bd 9b 8b 6d 3d
       5.079247e-05 0.02852854 -0.09080502 0.057994466
0000b0 69 7e f1 bd 6b da c0 bd 49 d4 9d 3c c0 c5 c8 bd
       -0.11791689 -0.0941666 0.019266265 -0.09803343
0000c0 87 18 84 bd c8 f5 d5 bd 09 d1 05 3d ea c0 3e bc
       -0.06449991 -0.1044727 0.032670055 -0.011642674
0000d0 c2 cd 8c 3b 44 df c6 3d 93 70 08 3d a4 f3 09 be
       0.004296989 0.09710553 0.033310484 -0.13471848
0000e0 97 9e db bc e8 28 4d 3d 37 3f c7 3d 8e 4b b0 3d
       -0.02680902 0.05008784 0.09728854 0.08608161
0000f0 24 05 79 3d 15 32 11 bc a0 2a f5 bc 43 88 e1 bc
       0.060795918 -0.008862038 -0.029927552 -0.027530795
000100 fd f0 8c 3d 58 06 ae 3d 07 f9 b6 bc 82 48 37 bd
       0.06881902 0.08497304 -0.022335542 -0.044746883
000110 c9 bd 91 3d 91 b3 de 3c a9 ba c5 bd 70 fc bd bd
       0.07116277 0.027185233 -0.09654743 -0.09276664
000120 4c b6 a1 bd b0 f7 87 3d 1c 16 c1 3d d9 16 4f 3d
       -0.078960985 0.066390395 0.09428045 0.0505589
000130 6f 32 d2 bd 53 ff 3d 3d ea d6 72 bd 99 7e 90 3c
       -0.10263526 0.046386074 -0.05928699 0.017638491
000140 ef 1a 02 bd c7 02 10 be 96 db ac bd e8 e7 02 bd
       -0.031763967 -0.1406356 -0.0844032 -0.031959444
000150 41 7d bf bc eb c7 a6 bd 35 6f 97 bc 7c 12 87 bd
       -0.023375155 -0.081436 -0.018485645 -0.065953225
000160 b4 fd eb 3d 94 72 b2 3d 79 88 03 3e 7f 79 c6 bd
       0.115229994 0.0871326 0.12845029 -0.09691142
000170 30 b0 da 3b 96 f4 a8 3d ac 1a d1 3c 98 ed ea 3b
       0.006673835 0.08249776 0.025525413 0.0071694367
000180 5a 59 54 bd 88 c3 7c bd c0 74 85 b9 ad 18 ce 3c
       -0.051843025 -0.06170991 -0.00025454722 0.02515825
000190 e7 38 73 bd 50 ec 53 3d 57 64 c6 3c f0 1f b8 3d
       -0.05938044 0.051739037 0.024217768 0.089904666
0001a0 b0 97 4e 3c 6f 75 ba bd 6a f8 25 3d 71 51 19 3d
       0.012609407 -0.0910443 0.04052011 0.037431184
0001b0 a4 74 fb 3c d9 e2 91 3d a1 c2 ad 3d f4 2e 45 3b
       0.030695267 0.07123346 0.08484388 0.00300878
0001c0 8b 2d 9e 3d bb ef 1d 3d 45 11 85 3c c3 03 70 3b
       0.077235304 0.038558703 0.016243586 0.0036623336
0001d0 ad 60 45 bd 94 ca c6 bc 31 7f d3 3d 0a fa a9 bd
       -0.0481879 -0.024266519 0.10326994 -0.08299644
0001e0 b8 7d 8e bd 39 52 ca 3a e8 0e ce bc 09 3a 0e 3d
       -0.06957573 0.0015435881 -0.025153592 0.034723315
0001f0 4a 54 1d bd 84 b9 af bb 77 93 b1 3d 6e f4 b0 bd
       -0.038410462 -0.0053626914 0.08670705 -0.08640371
000200 08 41 66 3d 27 55 df 3c 10 d6 b8 bc e5 79 e8 bd
       0.056214362 0.027262283 -0.02256301 -0.113513745
000210 38 93 56 bd 1a 58 c3 bc 43 e4 b2 3b d3 2f a1 3d
       -0.052386492 -0.023845721 0.00545934 0.0787045
000220 40 d6 48 bd e6 0e 7b 3d 6d 56 62 bc 4b 32 f5 3d
       -0.04903245 0.061293505 -0.013814551 0.11972483
000230 5a e8 bb bd e0 cb a7 bd 31 dd 02 3c 37 b8 10 3b
       -0.09175177 -0.08193183 0.007987306 0.0022082457
000240 8f 44 c4 3d 76 cf 04 bd 4a b0 8f 3d 41 ad dc 3c
       0.09583389 -0.032424413 0.07016046 0.026938083
000250 1f ab dd bc 7f 32 30 3d c2 64 cf bd ed 4d ce 3b
       -0.027059136 0.043016907 -0.1012664 0.0062959106
000260 62 d8 1f 3b 4e f0 55 3d d3 c5 59 3d 62 96 ec bd
       0.0024390449 0.052231126 0.053167176 -0.11552121
000270 4c 4a fe bc eb fd 5b 3d 6a f4 7f bc f2 b9 5a bc
       -0.031041287 0.053708952 -0.015622238 -0.013349997
000280 a5 32 8e 3d 40 d8 64 3d 5b 7c a3 bc e9 bb df bc
       0.069432534 0.055870295 -0.019956758 -0.027311282
000290 08 da 42 3b 52 78 a6 3d a7 52 52 bc db d6 07 bd
       0.0029732008 0.08128418 -0.012837089 -0.033163887
0002a0 77 5f 6d bd 88 20 55 3c 18 b0 46 bd 7d 1a 99 bd
       -0.05795237 0.013008244 -0.04850778 -0.07475755
0002b0 24 28 8b bc 86 03 90 3d 10 13 eb 3c dd 78 8b 3a
       -0.016986914 0.07031922 0.028695613 0.0010640878
0002c0 c5 0f 24 bd d9 a4 5a bc 6d 58 a8 3b 68 6c 46 3d
       -0.0400541 -0.013344967 0.0051374943 0.048443228
0002d0 c7 03 ad 3d f3 69 a4 bd df a8 b2 3c b0 1c 28 3d
       0.08447986 -0.08028021 0.02180904 0.041042984
0002e0 f1 5b 56 bc 5e 76 05 3e 43 27 cf bd a5 a5 ed bd
       -0.013083444 0.13033435 -0.101149105 -0.1160386
0002f0 42 14 5c 3b 6f 1b da 3c 2a f1 8b bd aa 53 21 3d
       0.003358141 0.02662441 -0.06833108 0.03938643
000300 84 55 73 bc a8 8e 5d bd b2 8e dc 3b 8c 80 1f bc
       -0.0148519315 -0.054091126 0.006730878 -0.009735238
000310 86 4b fc bd ca fc a6 bc 40 1c 67 3d 79 76 cf 3d
       -0.123190925 -0.020384211 0.056423426 0.10130019
000320 97 fa 19 3c 44 1e b4 bd fe 22 70 3d 3c 2a 17 ba
       0.009398124 -0.08794835 0.05862712 -0.0005766486
000330 99 60 d6 3d b4 8a 05 bd f1 56 ad bd 14 28 d2 bb
       0.10467643 -0.03260298 -0.084638484 -0.006413469
000340 a6 37 ba bc 91 56 66 bd 18 ed 0f bd 07 ac 56 3d
       -0.022731613 -0.0562349 -0.03513822 0.05241015
000350 b0 eb 10 3d a7 83 46 bd 72 18 a0 3d 14 ac f9 bb
       0.03538102 -0.048465397 0.078171626 -0.0076193903
000360 f2 df ac bb 67 29 34 3c 34 af d9 3b 3e 1f 06 bd
       -0.00527572 0.010996199 0.0066432003 -0.03274464
000370 9f 3b ca 3d d2 e8 be 3c 7c c6 b7 bc 42 56 62 bd
       0.09874653 0.023304377 -0.022433512 -0.055258043
000380 3f 06 a7 bd 77 a2 d9 bd b3 4e 9d bd 33 48 49 bd
       -0.08155488 -0.10626691 -0.07681026 -0.04914112
000390 1b e5 0f 3d f9 d2 e3 3d e6 f7 22 bd e6 48 a4 3a
       0.0351306 0.11124224 -0.039787196 0.0012533932
0003a0 14 bf 94 bd 0d 00 d4 3d 67 d2 2e 3d f4 99 07 ba
       -0.07263008 0.10351572 0.042681124 -0.0005172782
0003b0 40 51 5d bc 99 3d 7a bc 88 8e 02 3e 31 b1 5d bd
       -0.013508141 -0.015273475 0.12749684 -0.05412406
0003c0 02 5a b1 bd 8c d2 23 bd 40 05 45 bd 4d 00 70 3d
       -0.08659746 -0.039995715 -0.04810071 0.058594037
0003d0 24 fd 40 3d 21 b8 94 bd 85 e9 99 3c d2 db a2 3d
       0.047116414 -0.07261682 0.018788109 0.07952084
0003e0 a1 eb a2 bd e9 b3 e7 bc 73 5e 45 3c 22 1a ce bd
       -0.07955099 -0.02828403 0.012046444 -0.10063578
0003f0 28 61 c5 3c d4 15 7d 3d 93 33 3b 3c b6 65 1c bd
       0.02409418 0.061788395 0.0114258705 -0.038182937

lstm.weight_hh_l0 f4 [512, 128]
000000 62 04 f0 3b ed 56 a5 bd 6d b8 ae bd 08 af 08 bd
       0.007324741 -0.080732204 -0.0853127 -0.033370048
000010 d9 5e 5a 3c 0d 70 93 bc 5f 77 db bb f7 9a 84 bd
       0.0133282775 -0.017997766 -0.0066975798 -0.0647487
000020 aa c9 be 3d 2f 09 d6 bd 04 f5 1b bd 95 c8 9c bd
       0.09315808 -0.104509704 -0.038075462 -0.076554455
000030 fc dd 4b bd 1b c3 ab 3d 79 b3 d6 bc 6d 67 10 3d
       -0.049772248 0.08386823 -0.026208626 0.035254885
000040 c2 1a 02 be 0f 18 75 bd 4b 5c eb 3c c6 4a 99 bc
       -0.1270552 -0.059837397 0.028730532 -0.018712413
000050 ac 04 73 3d 34 1c 0e 3d 85 d6 b3 3a f8 fe 8b bd
       0.059330627 0.034694865 0.0013720548 -0.06835741
000060 1a 72 f8 3d 73 b0 05 3c 7b 94 bb bc f3 99 b3 bd
       0.12131138 0.008159745 -0.02289795 -0.08769598
000070 6c 04 59 bd 23 9a e8 bc 4f 39 8a 3d 3e 6f d1 3c
       -0.052982733 -0.02839381 0.06749212 0.02556574
000080 5c a8 aa bc 45 c8 a2 bd 33 f0 1e 3d 39 e6 37 3c
       -0.020832233 -0.07948355 0.03880329 0.011224323
000090 0f 99 5a 3d f7 dd bc 3c 8b af 16 bd 37 0d 0f 3d
       0.053368624 0.02305506 -0.036788505 0.034924712
0000a0 5f a2 ac 3d ca f1 50 bd 47 5d 1c 3d cc ac 2b 3d
       0.08429407 -0.051011838 0.038174894 0.04191284
0000b0 d8 ff 9e 3d 75 d0 1d 3d b5 2d 05 bd 45 ae aa bd
       0.07763642 0.03852888 -0.032514293 -0.083340205
0000c0 0a 15 2c 3b 75 87 fc bd f0 c8 0d 3d b4 3a 20 bb
       0.0026257657 -0.12330524 0.034615457 -0.0024449052
0000d0 10 86 45 3c a2 f0 e4 3c 43 15 0c bd 7a 20 8f 3c
       0.012055889 0.027946774 -0.034199964 0.01747154
0000e0 aa 8b 3b bd e5 c2 7d 3d a2 41 a4 3d af 37 31 3d
       -0.04578749 0.061953444 0.08020331 0.043265995
0000f0 e2 ae 04 be 40 d2 76 bd de 94 cf 3c c1 0e 8a bd
       -0.12957337 -0.060259104 0.02533954 -0.06741095
000100 1a 54 c3 3d 45 25 31 bd 86 74 e8 bc 1b c3 ed bd
       0.095375255 -0.043248434 -0.028375875 -0.11609479
000110 a2 21 1b bc 74 d1 68 bd 91 a3 24 3d f4 bd c0 bc
       -0.009468468 -0.056840375 0.04019505 -0.023528077
000120 27 80 d5 3d 07 14 92 3d a2 52 e6 bb f7 d4 c3 bc
       0.10424834 0.07132726 -0.0070288936 -0.02390526
000130 55 02 d0 3b 3e 2e fc 3c 70 a2 4f 3d 6b 6d 60 3d
       0.0063479342 0.030783769 0.05069202 0.05479185
000140 d1 48 b3 bd d3 e1 92 bd 45 1a b6 3a 91 fd 79 3d
       -0.08754123 -0.07171979 0.0013893327 0.061032835
000150 58 cb c8 3d a2 28 74 bc bc be 80 3c d7 23 84 3c
       0.0980441 -0.014902266 0.01571595 0.016130371
000160 dc fa 1d bd 90 ce 03 3d 45 9e cd bc b6 36 f2 3d
       -0.038569316 0.032179415 -0.025099883 0.118268415
000170 62 bb 78 bc 47 4b 29 3c 1a aa 9c bd 59 60 93 3d
       -0.015181394 0.010332889 -0.07649632 0.07196111
000180 e3 b7 4f 3d 56 d5 11 3d 5f 69 87 3d 26 df 96 3c
       0.050712477 0.035603844 0.06611895 0.018416952
000190 14 c4 1b bd 27 94 e5 3d 6b 18 cc bc ee 89 13 3d
       -0.03802879 0.112098984 -0.024913987 0.036020212
0001a0 33 56 5d bb 03 b3 ce 3c 1f d8 e8 3c 2e cf 61 3c
       -0.0033773303 0.025231844 0.028423367 0.013782306
0001b0 fe 89 59 bd 46 a2 56 bd 6e ea 8a 3d 91 f9 89 3d
       -0.053110115 -0.05240085 0.06782995 0.06737054
0001c0 42 ba b7 3d 9e ed 6e bb 48 0b 36 bd a9 b6 d1 bc
       0.08971073 -0.003645755 -0.044444352 -0.025599794
0001d0 dc 7f fe 3b 3a 48 81 3d a7 b0 4a bd 3b e1 89 3b
       0.007766707 0.06312604 -0.049484875 0.004207758
0001e0 e5 7b b8 bd e7 d8 a5 bd 15 18 6e 3c 62 24 1d bd
       -0.09008006 -0.080980115 0.014532109 -0.038364775
0001f0 d3 b2 a0 bc b8 28 1e bb 94 e3 a0 3a 95 73 d8 bd
       -0.01961652 -0.0024133157 0.0012274855 -0.105689205
000200 c0 0d c2 3c bd 5a c1 bc ae 66 37 3d dc ac 82 bd
       0.023688197 -0.023602838 0.044775657 -0.063806266
000210 b4 fa c5 b9 16 e0 82 3d 80 30 59 3d 6e 91 92 bb
       -0.00037761556 0.06390397 0.05302477 -0.004472903
000220 65 a6 5f bd 9f a4 91 3d 5f 73 63 bc 1f be 08 bc
       -0.054602046 0.07111477 -0.013882487 -0.00834611
000230 16 ed 3b 3d 3d b3 80 bd 67 43 31 bc 17 79 9f 3d
       0.0458804 -0.06284187 -0.010819293 0.07786768
000240 48 e2 cf 3c d4 be a9 3d 27 d8 97 3d 69 cb 2f 3c
       0.025376454 0.08288351 0.07414275 0.010729649
000250 00 09 38 3d 49 62 5f bb 28 28 7f 3d 95 6d 12 3d
       0.044930458 -0.0034085682 0.062294155 0.035749037
000260 eb 6d 8a bd 80 b9 64 3d 9c cf 7b 3d bd 8f ca bc
       -0.067592464 0.05584097 0.06147729 -0.024726743
000270 2a 33 74 3c 7e 9c 10 3d 51 06 36 3d 20 66 3e 3d
       0.014904777 0.035305493 0.044439618 0.046484113
000280 63 d4 1f 3c de 98 f8 3c 43 88 26 3c c9 99 b5 3d
       0.009755227 0.03034633 0.010164323 0.08867223
000290 9f f7 e2 bc 18 15 6d bc c9 22 52 3d 5e fc ca 3d
       -0.027705966 -0.014470361 0.051302705 0.099114165
0002a0 06 4f bf 3d f4 85 50 3d 96 c5 8c bd a5 74 22 3d
       0.093412444 0.050908998 -0.06873624 0.039662022
0002b0 f0 15 81 3d cf 75 0e 3c 2d 00 30 3d 54 fc 1f 3d
       0.06303012 0.00869508 0.042968918 0.039059
0002c0 e9 f8 45 bd 28 80 19 bc 9d 63 00 bd 63 af 02 3c
       -0.048333082 -0.009368934 -0.031345 0.007976386
0002d0 a3 b7 0f bd de 23 87 bd 05 20 fc 3c 79 ae af 3c
       -0.03508724 -0.06598638 0.030776987 0.0214455
0002e0 e8 e4 b7 3c 14 0a 89 bd 36 0a 08 3d f9 cc af bc
       0.022448018 -0.066913754 0.033212863 -0.021460043
0002f0 9e c8 48 3c 15 f2 1f 3d fe 2b 26 bc cc 81 2f bd
       0.012254862 0.039049227 -0.0101423245 -0.042848393
000300 2a b5 34 ba f9 09 3a bd 2b a0 4b 3d e3 6b 88 3d
       -0.00068934506 -0.045419667 0.049713295 0.06661203
000310 6f c5 fc 3c 4d 33 48 3d b5 91 24 3d 3d 2b f4 3c
       0.030855862 0.04887705 0.04017802 0.029805774
000320 2a 48 5e 3c 48 a5 3b 3d e0 3a 0e bd 9c 73 3f 3d
       0.01356701 0.04581192 -0.034724116 0.046741113
000330 ba 0f 7b 3b d9 09 37 3d b4 6e 9f 3c 4b 8c 13 3d
       0.0038308934 0.044687126 0.019461967 0.036022466
000340 d0 4d a0 bd f0 20 80 3d 26 ca f3 bc e1 b4 3c bd
       -0.078273416 0.06256282 -0.029759478 -0.046070937
000350 42 1f f4 3c d3 36 76 bd 64 b2 8b 3d e4 e4 ef bc
       0.029800061 -0.06011088 0.06821135 -0.029283948
000360 8f cb 96 3d 05 9e 26 bd 84 d1 35 3d bc c2 4d bd
       0.073630445 -0.040678043 0.044389263 -0.05023454
000370 36 54 70 3d ca 15 64 bc 3f 51 8d 3d 0c 3c 20 3d
       0.05867406 -0.013921211 0.06900262 0.039119765
000380 16 b8 09 3b d6 48 14 bd e2 90 50 3d f3 be 7e 3d
       0.0021014265 -0.036202274 0.05091942 0.062193822
000390 c2 73 41 bb e2 38 5e 3c 42 c2 53 3d 4b 44 8a 3d
       -0.002951846 0.013563367 0.05169893 0.06751307
0003a0 b6 04 83 bd 5f 9e b2 3b a4 3d 78 bc 76 fc 14 3d
       -0.06397383 0.005451008 -0.015151415 0.036373578
0003b0 10 83 a5 bd 4a 0f 82 bd 1f 94 98 3c b3 b3 05 3d
       -0.08081639 -0.063505724 0.018625317 0.032642078
0003c0 b3 4d 5d bd 20 ad d6 bc 9e db c6 3b 98 db 50 3d
       -0.054029178 -0.0262056 0.006068661 0.05099067
0003d0 ff 28 6a 3c 93 96 3e bd da ca 6d 3d 8e 18 40 bd
       0.014292001 -0.046530318 0.058054782 -0.046898417
0003e0 87 ef bd bd 1e 29 7e 3c 94 59 75 bd c2 92 00 39
       -0.09274202 0.015512733 -0.05989988 0.00012261703
0003f0 18 1e c6 3d 9f c0 19 3d 1b 57 9a bd ef 06 ed 3b
       0.09673709 0.037537213 -0.07536145 0.0072334926

lstm.bias_ih_l0 f4 [512]
000000 b4 e8 cc 3d 5b 90 3b 3d c1 8a ec 3c e5 d9 15 bd
       0.10005322 0.045791965 0.028874757 -0.036584754
000010 17 ae 87 3d 34 d6 6a 3d 94 f2 fe bb 63 e7 74 3d
       0.06625002 0.057333186 -0.0077803824 0.05979098
000020 a3 c9 58 bd 53 1e 08 3d 1d c0 2c bd 71 7c cb 3d
       -0.05292667 0.033232044 -0.0421754 0.09935845
000030 4e d7 c4 bc 5a 97 46 bd 4e c7 2c bc 89 67 88 3c
       -0.024028447 -0.048484184 -0.010545565 0.016650932
000040 5e 4f cc 3c 80 a9 0c bd 00 8b 1d 3d 75 b7 04 3d
       0.024940189 -0.034341335 0.03846264 0.03240152
000050 e3 e7 bb bb 02 db fd 3d 1a ac d0 3d c3 8b 98 3d
       -0.00573443 0.12395288 0.10189076 0.074485324
000060 ca e9 a0 bd 76 cb c2 3d de 22 05 3d b9 92 c0 bc
       -0.07857092 0.09511463 0.032503955 -0.023507463
000070 a3 c7 a6 3d 9e 04 a1 bc c8 c7 22 bc 6c 58 84 3a
       0.081435464 -0.019655522 -0.009935327 0.0010097153
000080 95 de cb 3d f8 49 dd 3d d0 52 60 bc 6a 3d 4e bd
       0.099545635 0.10805124 -0.013691619 -0.050351538
000090 9c 0e 8a 3c 17 af 83 3c 78 13 c1 3c 68 7e a3 3d
       0.01685267 0.0160747 0.023568854 0.079830945
0000a0 b2 5b a5 3d 18 ac 52 bd 41 eb 9a 3c d0 0c 81 bd
       0.0807413 -0.051433653 0.018911006 -0.06301272
0000b0 54 51 b4 3c f2 b9 bd bb 1d e8 27 bc 41 e3 c7 3d
       0.022011437 -0.0057899887 -0.010248211 0.09760142
0000c0 b5 a1 87 3d 02 7c 82 bb 8c da a3 3d 2c 47 31 3d
       0.0662264 -0.003982068 0.08000669 0.043280765
0000d0 01 66 18 3c 2b 05 37 bd 96 0f ab 3d 15 c7 62 3c
       0.009301663 -0.044682663 0.08352582 0.01384141
0000e0 28 5b cd 3d a5 30 b8 3d ae 5c bc 3d e1 d2 4e bd
       0.10027152 0.08993653 0.09197365 -0.05049408
0000f0 5d ac 91 3d 48 eb d9 3d 72 44 2e bc 6d 86 7c 3d
       0.07112954 0.106405795 -0.010636436 0.061651636
000100 b3 1a ac 3b 92 78 ac bc f6 05 0e bc ca 7c 16 bd
       0.005252206 -0.021053586 -0.008668413 -0.036740102
000110 8b 62 d2 bc 58 15 f3 3d ad 8b 05 bd 41 2e 83 3c
       -0.025681755 0.11869305 -0.03260391 0.016013267
000120 34 a0 c5 3d 72 53 c8 3d 67 3e c8 bc a1 d0 ab 3d
       0.09649697 0.09781541 -0.024443818 0.08389402
000130 1d e4 64 3d 68 df e0 3d cb 26 8e 3d b1 55 b6 bc
       0.05588161 0.10980111 0.06940993 -0.022257658
000140 b5 3e a9 3d 24 61 cd 3d 6e de c7 3c 92 2e 9e 3d
       0.082639135 0.10028294 0.024398055 0.07723726
000150 28 16 83 3d e4 be 51 3c a9 80 c9 bc d1 ed 39 3d
       0.0640071 0.0128018595 -0.024597483 0.045392815
000160 35 f0 19 bd 16 43 3a bd 93 4e 9b 3d 05 9b 70 bd
       -0.037582595 -0.045474134 0.07583346 -0.05874159
000170 52 4c 0c 3a 17 80 22 bd db 1d 34 3d 54 2b af 3d
       0.0005351949 -0.039672937 0.043973785 0.08553186
000180 b1 f6 3b 3c 1f 54 a1 bc 0d a1 2a 3d 0f 2f ed 3d
       0.01147239 -0.019693432 0.041657496 0.11581241
000190 e9 d8 6b 3d 92 a5 ce bc bd 30 b0 3d d1 cb 22 3d
       0.05757991 -0.025225434 0.08603046 0.039745156
0001a0 8f 21 0e bd 11 43 de 3c c7 8a a5 bc d4 9c c8 bc
       -0.034699973 0.02713159 -0.020207776 -0.024488844
0001b0 d9 0c 5c bd 4a c6 96 3d 4d e7 e6 3d 0e 37 da bb
       -0.05372319 0.073620394 0.11274586 -0.006659395
0001c0 84 e8 2e bd fd fb 92 3d d5 ac c0 3c 60 77 c9 3d
       -0.042702213 0.07176969 0.023519913 0.09837222
0001d0 38 70 b2 3d 91 47 bb 3d 4a 7f e3 bc 54 fc 3a bd
       0.0871281 0.091445096 -0.027770657 -0.045650795
0001e0 35 cd 59 bd 9a 27 c5 3d 47 39 fa 3c f2 ed aa bc
       -0.053174216 0.09626694 0.03054489 -0.020865414
0001f0 2f cc 92 3c c8 1e e8 3c 68 90 0c bd 2b 3d 8e 3d
       0.017919628 0.02833499 -0.034317404 0.069452606
000200 b7 d3 d5 bc 65 ba 62 bd 19 d8 03 3e c7 39 43 3d
       -0.02610193 -0.05535354 0.12875403 0.047662523
000210 b3 83 ce bc a2 48 00 3d eb 83 8d bd 02 29 3d bd
       -0.025209283 0.031319268 -0.06909927 -0.046181686
000220 11 c8 eb 3b 85 58 09 bd 60 9d e8 3d 71 48 17 3d
       0.0071954806 -0.033531684 0.11358142 0.03693432
000230 ed 44 a0 bc 14 1a 18 3d 90 15 de 3c 39 6e b3 bc
       -0.019564116 0.037134245 0.027109891 -0.021903144
000240 cb d0 21 bd ac 29 09 3d ad 61 dd 3d ab 2a 5c 3c
       -0.03950576 0.033487007 0.10809646 0.013437907
000250 9d 66 83 bc 20 69 29 bd eb 50 cd bb a5 86 cd 3b
       -0.01604014 -0.04136002 -0.0062657497 0.0062721544
000260 c8 88 99 3c b4 05 c7 3d 49 c9 f2 3d 4e 5c 9b 3d
       0.01874198 0.09717885 0.11854798 0.07585965
000270 60 21 68 3d ec 66 1b bd 5d 3f 05 3d 10 71 44 3d
       0.056672454 -0.03793995 0.03253113 0.047959387
000280 47 3d 06 bd c5 5e dd 3d b3 2d df 3c e0 a0 4e 3d
       -0.032773282 0.108090915 0.02724347 0.05044639
000290 6c 4d 09 bd b2 52 e5 3d 05 c2 a8 bd ff e9 4f bd
       -0.0335211 0.111974135 -0.08240131 -0.050760265
0002a0 d9 4a b7 3d 90 04 b6 3d d4 ce b2 3c 89 90 29 bd
       0.08949823 0.08887589 0.021827139 -0.041397605
0002b0 f6 fe 1d bd b3 0d db 3d c6 0d ff bc 28 97 81 bc
       -0.038573228 0.10695972 -0.031134497 -0.015819147
0002c0 ee c5 0a bd e7 3b cb 3d 36 76 a8 3c a9 e5 26 bd
       -0.033880167 0.09923535 0.02056418 -0.040746365
0002d0 f1 8d 9f 3c 9f ec 90 bd 4c f2 38 3d 28 19 4c bb
       0.019476863 -0.07076382 0.045152947 -0.0031142924
0002e0 53 b0 df bc b5 9e 88 bd 92 2c ae 3d f0 95 96 3d
       -0.027305758 -0.06670896 0.08504595 0.07352817
0002f0 5c 1b 94 3d 21 c8 15 3b 3e 9c 9e 3c 6c 5b d3 3d
       0.07231781 0.0022854882 0.019361611 0.10320172
000300 3f 8f 12 3c 23 9e 13 bc ac b5 a6 3d 88 d2 3e 3d
       0.008945285 -0.009009871 0.0814012 0.046587497
000310 8e eb 98 3d 38 9e 29 3d 6c 97 1b bd 56 99 84 bd
       0.074668035 0.041410655 -0.037986204 -0.06474559
000320 7f d9 a7 3d b1 3b 80 3d af ea 29 bc 78 af a3 3c
       0.08195781 0.06261385 -0.010370894 0.019981131
000330 d4 d7 be 3b d2 d4 a0 3c ea 64 df 3c 11 4a 5b 3d
       0.0058240686 0.01963273 0.0272698 0.053537432
000340 c8 03 1e bd 21 56 d3 3c ae 2f d2 3c 81 88 63 bd
       -0.038577825 0.025797905 0.025657501 -0.055550102
000350 de 6f 62 3d ca 71 10 3d 3f 7c cb 3d 3a e7 b0 3d
       0.055282466 0.035264768 0.099358074 0.08637853
000360 de 3a 93 3d 4b a4 43 bc 01 af e3 3a ed c2 a3 3d
       0.071889624 -0.011941026 0.0017370881 0.079961635
000370 f4 e7 28 bd be 1b 3c 3d ad 3d 70 3d 8e f1 1b 3c
       -0.041236833 0.045924895 0.05865257 0.00951804
000380 d5 d6 b1 bd 76 1b 27 3c 12 14 0f bd 4a 00 05 bd
       -0.08683554 0.010199418 -0.03493125 -0.03247098
000390 dd 12 1a 3d 0f b8 c7 3d 7c 1e 07 3c 6b e4 95 3d
       0.037615646 0.09751903 0.008247014 0.07318958
0003a0 11 c0 1a bd de 84 4a 3d 5a 2c 5c 3d b5 91 6f 3d
       -0.037780825 0.04944312 0.053753234 0.058488566
0003b0 ec 2d be bc 60 d6 ac bb 0d 11 eb 3c 74 67 97 3d
       -0.023215257 -0.005274579 0.028694654 0.07392779
0003c0 3e 7d 31 bc 58 31 8f bd 98 a5 e0 bc 90 27 19 bd
       -0.010833083 -0.069918334 -0.027422711 -0.037391245
0003d0 88 78 08 bd 51 d4 89 bd da bc ef 3c ea cc 43 3b
       -0.033318073 -0.06729949 0.029264856 0.0029876777
0003e0 40 ab 45 bd 45 13 c9 bc e2 bd e2 3d 6c 3c ed 3d
       -0.04825902 -0.024545321 0.110713735 0.1158379
0003f0 9a 0d d6 3b 5e b3 43 bc 5b 1f 96 bc 09 b3 cd bb
       0.006532383 -0.01194462 -0.018325498 -0.006277446

lstm.bias_hh_l0 f4 [512]
000000 bb b8 6d 3d a5 74 76 3c 4b 20 bf 3c 1b 99 80 3d
       0.0580375 0.015042459 0.023330828 0.062792026
000010 ae 80 8e 3d 66 5a 37 bd b4 71 b4 3d fd 25 cc bb
       0.069581375 -0.044763945 0.0881075 -0.0062301145
000020 a1 d6 6e 3d 0a 28 3c bc ef cb c6 bc 7e f4 82 3d
       0.058310155 -0.011484155 -0.024267165 0.063942894
000030 7e 7f ac bb a1 5c 1f 3d c4 b5 01 3d 8b bc e6 3b
       -0.0052642217 0.038906697 0.031667486 0.007041519
000040 89 b1 7e bd 4a ac c0 bb 88 f8 4b 3d 7c 91 c6 3d
       -0.06218103 -0.0058799135 0.049797565 0.09695718
000050 1c 26 ea 3d cf a1 f1 3c 68 f1 e3 3d 51 8a b3 3d
       0.1143305 0.029496102 0.11130029 0.08766616
000060 36 2e 4b 3d 37 42 53 3d 86 72 c7 3d b0 9b 1d bc
       0.049604617 0.05157682 0.097386405 -0.009619638
000070 1f 80 71 3c 4d 39 ff 3c ee e3 4b 3c 68 40 bb bc
       0.014740019 0.031155253 0.012444479 -0.02285786
000080 da b8 97 3c e0 80 f8 3d 84 a0 2a 3d 7a a2 74 3d
       0.018520761 0.12133956 0.041656986 0.059725262
000090 44 71 6d bd 8e e1 bc 3d 39 4f 95 bc 1c 55 e9 3c
       -0.057969347 0.09222709 -0.018226253 0.028482966
0000a0 f2 af dd 3c 2c 21 29 bd 45 4e 80 3d 3c c1 bb 3d
       0.027061436 -0.0412914 0.06264929 0.09167716
0000b0 72 cd c6 3d cd bd 0a bd a7 77 fa 3c de 04 e6 3d
       0.09707154 -0.033872414 0.030574633 0.11231397
0000c0 d8 59 96 3d f1 ec 0a bc ee b7 73 bc 94 6e c4 3d
       0.07341355 -0.008479343 -0.014875395 0.095914036
0000d0 50 ea 51 3d d8 af 87 bd 1c 5c ae 3d 04 c3 2f 3d
       0.05124885 -0.066253364 0.08513662 0.04291059
0000e0 5d dd 40 3c 28 78 84 3d cd 32 89 3d d8 b6 ac 3d
       0.011771527 0.064682305 0.066991426 0.08433312
0000f0 40 22 f8 bc 6d 74 12 3d 22 db 69 3d 4e 63 e0 3d
       -0.03028977 0.035755564 0.057093747 0.10956441
000100 21 55 e3 3d e1 9c d4 3d fb 73 92 3c 42 49 3c bd
       0.111002214 0.10381485 0.01787757 -0.0459683
000110 0f 4e 02 3d 75 94 2e 3c 45 ef 0c bd 8f 1b a2 3d
       0.031812724 0.010655512 -0.034407873 0.07915413
000120 07 db 96 3d 98 12 b0 3d af 60 66 3d f0 a4 30 3d
       0.07365995 0.085972965 0.05624455 0.043126047
000130 46 e4 c0 3d 09 7c cd bc 85 a0 a9 3d ad 65 bc 3c
       0.0941854 -0.025083559 0.0828257 0.022997702
000140 d9 ea 05 bd 13 fb 8f 3d ba 0a 61 3d c2 19 e3 3b
       -0.03269467 0.070303105 0.05494187 0.006930561
000150 c4 11 5d 3d f0 1e d2 3c ae 07 6b bd 32 0a 3d 3d
       0.05397202 0.025649518 -0.05738037 0.0461523
000160 f7 d6 0a 3d ec f9 c6 3d e0 fb 8e bd 01 b6 42 bc
       0.033896413 0.097156376 -0.06981635 -0.011884213
000170 8f 90 0a 3d b1 1d 57 3d f2 93 f8 3b d5 b0 fc 3d
       0.033829268 0.05251855 0.007585996 0.123384155
000180 77 c3 39 bd d8 76 b8 3d 0c 6d e2 3d c0 58 15 3b
       -0.045352425 0.09007043 0.11055955 0.0022788495
000190 f7 6e 0f bd f9 14 b0 3d 0c 5b ab bc 66 a8 01 3d
       -0.035017934 0.0859775 -0.020917438 0.031654738
0001a0 06 45 a1 3d 89 e8 b1 3d 0b 4f c4 3d 4d 9c 03 3d
       0.07874493 0.08686931 0.09585389 0.032131482
0001b0 dc 65 17 3d ea 4a c5 3d 3f 63 d7 3d 48 b9 3a bc
       0.036962375 0.09633429 0.105169766 -0.011396714
0001c0 0d d2 6d bc 98 b6 42 bd ab d0 b8 bb 68 55 95 3d
       -0.014515412 -0.047537416 -0.0056401095 0.072916806
0001d0 33 5b d1 3d 73 3b a4 3d c9 74 c4 3c 4b ad 9b 3d
       0.10222473 0.080191515 0.023981469 0.076014124
0001e0 7a fc f4 3b a3 7e b9 3d 83 8e 7f 3d 49 06 88 3d
       0.0074763866 0.09057357 0.06239177 0.06641824
0001f0 f7 d9 8d 3d 4e 17 7f bd 26 50 c6 3d 33 3a 48 bd
       0.06926339 -0.062278084 0.09683256 -0.048883628
000200 d5 10 ae 3d 02 b9 a1 3d 65 54 8f bc d2 67 f2 3c
       0.08499304 0.078966156 -0.017496297 0.029590521
000210 e1 73 c2 bb 39 76 90 bd 08 ec 99 3d 1f d5 d5 bc
       -0.005934224 -0.07053799 0.075157225 -0.0261026
000220 97 3d 10 bc ae ca ee 3d e0 1b e0 3d ca 90 ce bc
       -0.008803747 0.11659752 0.10942817 -0.025215525
000230 7a 5d 6c 3d 1d 7b af 3d cb 9e 9b 3d 2f 58 42 3d
       0.057706334 0.08568404 0.07598647 0.04744738
000240 a1 df 80 3d 3b c3 9d 3c 67 fe 94 3d b2 94 c4 3d
       0.06292654 0.019258132 0.07275086 0.09598674
000250 57 d2 28 bd 44 57 da ba 1c 29 83 bd 8c 94 97 3d
       -0.04121622 -0.0016658087 -0.06404325 0.0740138
000260 66 55 71 3c 7d fd ad 3d e0 53 a0 bc 8a 02 8d bc
       0.014729833 0.08495615 -0.019571245 -0.017213125
000270 d3 10 51 bd 4c cd ee 3d ef bd 74 bd b2 7c a1 bb
       -0.051041435 0.11660251 -0.059751447 -0.004928195
000280 db 71 96 3d 99 9c 34 bd 17 83 0c 3d 3c 26 87 bd
       0.07345935 -0.044094656 0.034304705 -0.065990895
000290 29 f0 fa 3c ac f1 ef 3d 70 a0 5f bd e8 cc 9c 3d
       0.030632095 0.11716017 -0.054596364 0.0765627
0002a0 eb a5 5e 3c 13 94 6a bd 0f a4 c1 3d 08 5b 0e bd
       0.013589363 -0.05727012 0.0945512 -0.034754783
0002b0 35 06 59 3d 08 50 ce 3c 7b 93 43 bd 94 93 60 3c
       0.052984435 0.025184646 -0.04774807 0.01370706
0002c0 b8 f1 86 bd 94 15 96 3c 83 fc 26 bd 39 d4 43 bd
       -0.06589073 0.018320836 -0.040768158 -0.047809813
0002d0 f8 6c b6 3d c6 ac b4 bc 46 b7 b7 3d 1c 08 23 3c
       0.08907503 -0.022055041 0.089705035 0.009950664
0002e0 ec e7 46 3d 01 2f 32 bd 18 a4 ad 3d f5 33 99 bc
       0.04856102 -0.043501858 0.08478564 -0.018701533
0002f0 39 54 23 bd d0 1c 1f 3c 36 c1 d5 3d c9 28 02 bc
       -0.039875243 0.009711459 0.10437243 -0.007944294
000300 4c 9f e8 3d 4c c7 92 3b f1 5b 0b 3d 48 d1 57 bd
       0.113585085 0.0044793244 0.03402323 -0.05268982
000310 20 91 65 bd 15 50 1e 3d 24 2a 40 bd 47 a2 66 bc
       -0.056046605 0.03865059 -0.04691519 -0.014076776
000320 03 b9 fb 3d 29 8f 78 bb 6c 91 bb 3d 0b b4 57 bd
       0.122911476 -0.0037927127 0.091585964 -0.052661937
000330 01 21 9c 3d fd a5 77 bb 96 68 6c bd 01 35 c0 3d
       0.076234825 -0.0037788146 -0.05771693 0.0938511
000340 a1 21 f4 3d 3a 68 a7 3d 30 b4 0d bd 93 65 ca 3b
       0.11920477 0.081741765 -0.03459567 0.0061766594
000350 99 ee 21 3d c4 99 b7 3d 5d 69 3a bd a9 25 a5 3c
       0.039534185 0.08964875 -0.04551064 0.02015956
000360 65 b0 29 bd cd a1 ec bc f5 40 3d 3d ee ae ec ba
       -0.04142799 -0.028885746 0.046204526 -0.0018057504
000370 26 3e 89 bc e0 37 3d bd 48 2a bd bc 92 c5 e6 3d
       -0.016753267 -0.046195865 -0.02309145 0.11268152
000380 0b 3d 23 3c d5 9d fa bc 5b c1 b7 3d 5b 63 a1 3d
       0.009963284 -0.030592838 0.089724265 0.07880279
000390 30 25 80 bd b8 73 89 3d cc e5 98 3d 93 92 99 3d
       -0.06257093 0.06711525 0.07465705 0.0749866
0003a0 f6 68 5e 3d 49 78 d1 3d 9f 7c 7d bc e1 10 02 b9
       0.054299317 0.10228021 -0.0154716065 -0.00012404054
0003b0 1e 40 45 3d b1 4a 72 3d 17 03 8a bd ea c4 5c bd
       0.04815685 0.059153263 -0.067388706 -0.05389873
0003c0 bc ed 81 bd 20 78 e8 bc 44 1c 93 3c 35 01 a3 3b
       -0.06344172 -0.028377593 0.017957814 0.004974509
0003d0 4a d2 87 3c f3 a5 d5 3c 2e 95 b2 bc 33 7d 1c bd
       0.016579766 0.026080107 -0.02179965 -0.038205337
0003e0 82 a4 12 bb 3d 60 40 bc 53 50 ae 3d fc d3 b8 bb
       -0.0022375886 -0.011741695 0.085114144 -0.005640505
0003f0 82 7d ca ba c1 51 81 3d c9 3d 19 bc c3 a7 86 3c
       -0.0015448781 0.063144214 -0.00935311 0.016437417

lstm.weight_ih_l1 f4 [512, 128]
000000 bd 6c 01 3d 69 62 27 bd 53 e3 32 bd 73 61 8f bd
       0.03159784 -0.040865336 -0.043673825 -0.07001009
000010 99 b6 e0 3c 4b 20 a5 bc d4 bb 21 bd ad bf 46 3d
       0.02743082 -0.020157 -0.039485767 0.04852264
000020 bc 6b 8f 3d 8a d3 30 bd df 0c f1 3c 32 9a 32 3d
       0.070029706 -0.04317049 0.029425083 0.043604083
000030 1a da 9f 3d 53 c0 8f bc d0 96 78 bd 50 9b 56 bd
       0.078052714 -0.017547762 -0.0606907 -0.05239421
000040 6d 91 f6 3c 78 2a 85 3d 2f 03 66 bc 13 5d 93 bc
       0.030098641 0.06502241 -0.014038845 -0.017988717
000050 19 64 51 3c e7 68 ea 3c 24 5f d3 3d 8b 00 3d 3d
       0.012780213 0.028614474 0.10320881 0.046143096
000060 b4 d6 27 bc 71 72 af bd ac 2c 8e bd 54 57 07 bd
       -0.01024406 -0.0856675 -0.06942114 -0.033042267
000070 d6 53 ed bc fc 40 1b 3d 2f 66 51 bd db 3c ce bc
       -0.02897064 0.03790377 -0.05112284 -0.025175503
000080 40 fc 3c 3d 62 31 2f 3d b3 ed b8 bb 48 38 4e 3c
       0.046139 0.042771704 -0.0056435703 0.012586661
000090 dc 61 a4 ba 09 2f cd 3c 02 8c 95 3d 63 9b a0 3c
       -0.0012541371 0.025046842 0.07302095 0.019605344
0000a0 ab 16 21 bd e0 62 24 bb 41 cf cd 3c bd ca 32 bd
       -0.03932826 -0.0025083348 0.02512324 -0.043650378
0000b0 36 41 ab 3d 7d 2b 7e 3d 68 fd 52 3d 5b 90 9d bd
       0.083620474 0.062053192 0.0515112 -0.07693549
0000c0 8c ba 7f 3a e2 7d 7e 3c 85 3f 22 3d 63 45 5d 3c
       0.00097552757 0.0155329425 0.03961136 0.013505313
0000d0 9e 5f d6 3d b1 10 b3 bd 6c 3d 29 3d ee e1 a7 bb
       0.10467456 -0.08743418 0.041318342 -0.0051233685
0000e0 98 7d 38 3c 68 e1 6d 3d 69 f8 6d 3d 06 9d 3a 3d
       0.011260413 0.058076292 0.05809823 0.045559905
0000f0 82 69 24 bd c9 c3 b9 3d 75 cf 7b 3d 46 e1 8a 3d
       -0.040139683 0.09070546 0.061477143 0.06781249
000100 7b 5f 24 bc c1 54 a1 bc 46 6e 25 bd e6 09 80 bd
       -0.01003253 -0.019693734 -0.040388368 -0.06251888
000110 ad a3 6f bd 6c c2 85 bd 66 00 ed bc 9c 35 22 3d
       -0.058505703 -0.06531224 -0.028930854 0.039601907
000120 39 57 aa bd 1a d4 25 bd 2a 05 24 bd 89 9e 2b 3d
       -0.08317418 -0.04048548 -0.040043987 0.041899238
000130 c5 6c 88 3d 2b b3 b2 bd dd 7e 1b 3d 27 81 91 3c
       0.06661371 -0.0872558 0.037962783 0.01776178
000140 c9 28 38 3d 65 2c db 3c 98 1c 10 3d 81 50 96 3d
       0.04496077 0.026754567 0.03518352 0.07339574
000150 ab 16 6d 3d 2e e7 78 bd d8 34 b9 3d e0 ca a0 3d
       0.057882946 -0.060767345 0.09043282 0.07851195
000160 98 5a 7e bd 9c cd 00 3d 0f 8d 6e bc 7d 62 2b bd
       -0.062098116 0.031446084 -0.014559998 -0.041841973
000170 58 3b 1a 3d 37 34 56 bc 11 34 58 bd 5f 1e 74 bd
       0.03765425 -0.013073972 -0.05278403 -0.059599277
000180 81 c5 4b 3c 51 b1 1f bd d9 d2 4c 3d 13 d1 ab bd
       0.012437225 -0.03898746 0.050005767 -0.08389487
000190 3b fc 0b bd dd 35 27 bc 56 3e 2e 3d 67 8e 47 bd
       -0.034176093 -0.010205713 0.042539917 -0.04871979
0001a0 b4 7d ab bd e1 e9 4d 3d 3c b7 8d bc 35 52 7c 3b
       -0.08373585 0.050271872 -0.017299287 0.0038501148
0001b0 4c 3d 85 3d 4c d4 29 bd c1 f2 9b 3d 15 6b df 3c
       0.06505832 -0.041462228 0.07614661 0.02727274
0001c0 0f 70 42 bd d8 a1 3a bd 02 3c 16 3d 1e 6f 7b bc
       -0.04747015 -0.045564502 0.03667832 -0.015346317
0001d0 5b 5c b8 3c 82 d6 72 3b 74 22 ad 3d 89 2b c5 bd
       0.022504976 0.0037054126 0.08453837 -0.09627444
0001e0 c7 b1 70 bd 49 4c 38 3c 05 9a ad bd 03 23 e4 3c
       -0.05876329 0.011248657 -0.084766425 0.027848726
0001f0 08 a4 a5 bc f7 69 99 bd e8 91 79 bc 1a 31 51 3c
       -0.020219818 -0.07490914 -0.015232541 0.012768054
000200 7d a5 aa 3d 9f 1f f4 bc 59 61 0e 3d b6 88 73 bd
       0.08332346 -0.029800234 0.034760807 -0.05945655
000210 76 d4 25 3b da 20 c6 3b 3b 0c 7c bd 41 48 f3 3c
       0.0025303639 0.0060463967 -0.0615351 0.02969754
000220 30 46 af 3d 88 ca ad bd 99 2a ef bc 3a f5 a1 bd
       0.08558309 -0.084858954 -0.029195117 -0.079081014
000230 67 ad 63 bb b0 84 c2 3c 4f af a9 bc f3 15 c6 3d
       -0.0034740807 0.023744911 -0.020713476 0.09672155
000240 f3 4e fe bd fc b5 23 bd 37 34 ab bd 27 89 58 bd
       -0.12417402 -0.039968476 -0.083595686 -0.052865174
000250 59 a8 0d 3d 9e e4 58 bd d9 18 fc bc e3 06 92 bd
       0.034584377 -0.0529524 -0.030773567 -0.0713022
000260 63 4c fc 3c d1 e6 45 3d da e8 60 bd 62 da b7 bd
       0.030798143 0.048315827 -0.054909565 -0.089772
000270 83 85 b7 bc 34 74 01 3b 9c 16 8c bd bc bb 4d bd
       -0.02240253 0.00197531 -0.0684025 -0.050227866
000280 00 92 67 36 5d 0b bb bc 8a 50 23 3d 6d 23 18 3c
       3.4506666e-06 -0.022832567 0.03987173 0.00928579
000290 b3 6f 88 bb 3c 66 bd bd 8a 2e b6 bd fb 3f 51 3d
       -0.004163706 -0.09248015 -0.08895595 0.051086407
0002a0 ad 64 94 3d 32 f9 be bc 0c 90 7c bd 2f 5b 8f 3d
       0.07245765 -0.023312185 -0.06166081 0.06999814
0002b0 af 6b c0 3d 81 08 79 bd 30 48 a3 3d 11 dc 31 3c
       0.09395539 -0.060799126 0.07972753 0.010855691
0002c0 14 17 c9 3d 90 58 94 bd 36 9a d2 bd b6 1c 44 bd
       0.09818855 -0.072434545 -0.1028332 -0.047878943
0002d0 a7 0d 71 3d 89 f0 4c 3c 1e 11 88 3d ae cb 3c bd
       0.05885091 0.01250852 0.0664389 -0.04609268
0002e0 ab 91 45 3d 75 ec 78 3d 04 b6 c3 bc d1 d1 bc 3d
       0.048234623 0.060772378 -0.023890503 0.09219707
0002f0 71 85 a2 bd 84 a6 49 3d 86 7d 7e 3d 62 95 aa bd
       -0.07935608 0.049231067 0.062131427 -0.08329274
000300 a5 66 03 3e 3a 86 c2 ba 2f 84 0c be 8a c8 7f bb
       0.12832125 -0.0014841028 -0.13722299 -0.0039029443
000310 c5 07 ba 3c 45 56 20 3d e0 9c 8e 3d 4e 50 89 bd
       0.022708783 0.039144773 0.06963515 -0.0670477
000320 1c 69 3b 3d 60 9a ab 3d d5 07 ae 3b 56 ff a8 bc
       0.045754537 0.08379054 0.0053109922 -0.020629566
000330 7c 2d 96 bd 12 22 1f 3d 80 f8 ce bc 48 7b 86 3b
       -0.07332894 0.03885085 -0.025264978 0.0041040517
000340 29 62 25 bd 36 9c 93 bc 5d a2 b1 bc 1f 5a d8 bc
       -0.040376816 -0.018018823 -0.021683866 -0.02641016
000350 8e e5 8f 3d 0a 79 57 3d ee bd 8a bd a5 86 ef 3c
       0.07026206 0.052605666 -0.067745075 0.029239008
000360 bc 36 1e 3d 5a 35 33 bb ed ca 59 3d 61 7a 02 bc
       0.038626418 -0.0027345032 0.05317204 -0.007963748
000370 bb 9f 1e bd c3 02 3e bd e6 62 12 3d ba 71 62 bd
       -0.03872655 -0.046389353 0.03573885 -0.05528424
000380 71 ef d5 bc 39 d8 08 bd f6 c3 72 3d cb 6d e2 bd
       -0.026115151 -0.03340933 0.059268914 -0.110560976
000390 d7 ae 38 bd 99 c8 f7 3c 41 fb ee 3d 9a a2 91 bc
       -0.045088615 0.03024702 0.11669017 -0.01777773
0003a0 87 04 c3 3d 67 28 11 3d 47 18 5d bd ff cf a3 bd
       0.09522348 0.03543892 -0.05397823 -0.079986565
0003b0 81 59 07 bd 1b 59 a6 bd 94 99 3b 3c bf 5b b4 3d
       -0.033044342 -0.08122464 0.01145019 0.08806562
0003c0 bb e5 0a 3e 1d b8 56 3d cc 41 ad 3d 4d b5 86 3d
       0.13564198 0.052421678 0.084598154 0.06577549
0003d0 ad 3b a9 bc 2b f9 13 bd 78 18 f7 3c 3d 9e d7 bc
       -0.020658338 -0.036126297 0.030163035 -0.026320571
0003e0 7f fe f8 3c 80 35 cb bc b4 a9 96 3d c3 d7 d9 bd
       0.03039479 -0.024805784 0.07356587 -0.106368564
0003f0 a0 50 f9 3d 81 19 27 3d f4 75 05 3b ac b4 b8 3c
       0.12173581 0.040795807 0.0020364495 0.022547089

lstm.weight_hh_l1 f4 [512, 128]
000000 0f f0 28 3c 00 02 b1 3d 98 9d 28 bd cf cb 97 bd
       0.010311141 0.086429596 -0.041165918 -0.0741192
000010 e3 d2 2b 3d d7 5d 9b 3d 3e cc a3 bc e3 a6 9d bd
       0.041949164 0.07586258 -0.019994851 -0.07697847
000020 95 27 96 3d 69 ff 96 bd e2 f9 63 3d a6 a2 a7 bc
       0.073317684 -0.07372934 0.05565823 -0.020463299
000030 0b 4d 68 bd d3 65 f2 bb 77 73 8c 3c 4e db 21 3d
       -0.0567141 -0.0073973923 0.017144902 0.039515786
000040 d6 ed ab 3d c3 65 4d bd f0 b4 f5 3c d7 40 ce 3c
       0.08394973 -0.050145876 0.029993504 0.025177402
000050 29 04 a9 3c 40 77 24 3d 89 c9 89 bd 4c 6d 04 bd
       0.020631867 0.04015279 -0.06727893 -0.032330796
000060 34 43 83 bc c9 a9 e1 3c 71 1f 24 bc 46 a6 6d bd
       -0.016023256 0.02754678 -0.010017262 -0.0580199
000070 aa a2 9d bd 85 41 8b bd 92 ec b7 3c 92 43 84 3d
       -0.07697041 -0.06799606 0.022451673 0.064582005
000080 0a ce 56 bd a6 90 6c 3c 8d 87 8a 3b ec c9 a9 3c
       -0.052442588 0.014438784 0.0042275847 0.020726167
000090 a3 7a d7 bc eb 3b d0 3c 62 74 1a bd 4a 76 ab bd
       -0.026303595 0.025419196 -0.037708648 -0.08372171
0000a0 0a 5d 6c 3d 94 7a ad bd 10 6c b7 3c 34 ce b2 bd
       0.057705916 -0.084706455 0.022390395 -0.087307364
0000b0 c6 c1 84 bd e6 6a 73 3d 7b 1f 72 bd be 17 35 3b
       -0.06482272 0.05942812 -0.059112053 0.002763256
0000c0 e1 ee 1e 3b 89 4c a2 bd df a7 c1 3d 93 a9 b8 3d
       0.002425127 -0.07924754 0.09455847 0.09016719
0000d0 35 d2 ae 3d 7a f3 01 bd 5d 3c c7 3d 7a de 2e bd
       0.085361876 -0.031726338 0.0972831 -0.04269264
0000e0 30 fa 01 bd e9 65 a7 bc 60 b0 a0 bd 77 71 b2 3d
       -0.031732738 -0.020434337 -0.07846141 0.08713048
0000f0 7d 36 98 bd cc 92 a6 bd 16 06 45 bc a0 31 9c 3d
       -0.07432268 -0.08133468 -0.012025377 0.07626653
000100 a4 b8 c2 bb d3 de a1 3d 41 27 75 bd cd 34 a4 3c
       -0.005942421 0.079038285 -0.05985189 0.020044709
000110 8b 5d f7 bc b8 15 58 3d f1 ca 70 bd 00 bf b6 3d
       -0.030195972 0.052755088 -0.05878729 0.08923149
000120 4f b2 09 bb 26 62 11 3c 25 8e 42 bc 26 d1 2f bd
       -0.0021010821 0.008873498 -0.01187471 -0.04292407
000130 fe f9 a4 3d 81 e5 e0 3c 3e eb 8e 3c d7 ed 7f 3c
       0.08055495 0.027453186 0.017446157 0.01562067
000140 68 0f 03 3d 1d b6 88 3c c6 09 6b bd 33 5b 97 bd
       0.031997114 0.0166884 -0.057382368 -0.07390442
000150 97 17 a1 bd d5 70 3e 3d a6 2b f4 3c 8a e9 9e 3d
       -0.078658275 0.046494324 0.02980597 0.07759388
000160 31 59 91 bd 71 2b 8d bd 14 2c 92 bd 26 21 0b bd
       -0.0709709 -0.068930514 -0.071373135 -0.03396716
000170 76 61 17 3d 71 ba c7 bb aa 92 7a bd 8a ac 96 3d
       0.03695818 -0.0060952236 -0.061175026 0.07357128
000180 2d 3f 92 bd 79 4b b4 bd 20 99 72 bc f7 d4 0d bd
       -0.07140956 -0.08803458 -0.014807016 -0.034626927
000190 fd 06 84 3d f5 3a 1e 3d d0 a6 7a bd 00 96 c8 3d
       0.064466454 0.038630445 -0.06119424 0.09794235
0001a0 59 95 8d bb cd fc b8 3c be 22 63 bd aa 27 67 bc
       -0.004320782 0.022581482 -0.055453055 -0.014108578
0001b0 26 14 f5 bc fa c0 4d bc 38 36 48 bd cc 01 63 bd
       -0.029916834 -0.012558216 -0.048879832 -0.055421636
0001c0 8e 26 a6 bb 0b 5d 53 bd cc 58 7a bd c9 a5 32 bc
       -0.005070514 -0.051602405 -0.06111984 -0.010903784
0001d0 81 42 cc bd ec d3 8d 3d d4 d5 f7 bc ea 95 76 3c
       -0.09973622 0.069251865 -0.030253328 0.015050391
0001e0 a5 9d 95 3d 25 fc 0d 3c 17 b5 f2 bc 41 cf e5 bc
       0.07305459 0.008666073 -0.029627366 -0.028052928
0001f0 d5 54 0b 3d e7 8c 98 bc b4 65 89 3b 15 33 21 3d
       0.03401645 -0.018621875 0.004193032 0.039355356
000200 6e ab 7e bc 24 58 89 bd 30 2c 23 bd 84 ef f0 3d
       -0.015543802 -0.067062646 -0.039837062 0.11764434
000210 b8 0a c5 3b 85 44 5f 3d 5f a9 d2 3c 7d 67 b4 3d
       0.0060132407 0.054508705 0.025715528 0.08808801
000220 24 00 9e bc 16 50 e0 bd 7c 2c a8 bc 41 2f 85 3d
       -0.019287176 -0.10952775 -0.020529024 0.065031536
000230 d2 05 93 bc 0a 79 d0 3c 17 92 4f 3d 7a f7 48 bd
       -0.017947111 0.02544834 0.05067643 -0.049064137
000240 a1 f4 f8 3c 81 56 99 bd 59 71 fd 3d 16 ec bc 3d
       0.030390086 -0.074872024 0.12375135 0.09224717
000250 fc d9 41 bd cb c9 6f 3b 9e 48 19 3d 11 af 8f bd
       -0.047327027 0.0036588784 0.03742277 -0.07015813
000260 33 87 f2 bd ea 47 23 bd da 6b 22 bd a5 92 c1 3c
       -0.118421935 -0.039863504 -0.039653637 0.023629496
000270 4f 84 6f 3c 21 24 ef 3d 85 01 1c bd 8f 36 5b bb
       0.014618947 0.11676813 -0.038087387 -0.0033449268
000280 de d5 a4 3d 23 e3 98 bc fe 45 89 bd 94 be a8 3c
       0.080486044 -0.018662995 -0.06702803 0.020598687
000290 e7 36 2d bd 58 2d 3b 3c f2 e1 c8 3d 58 37 ac 3d
       -0.042288687 0.011424385 0.09808721 0.084089935
0002a0 09 7f 24 bd 21 30 6f 3d 28 f7 ed bd b8 44 2f 3d
       -0.040160213 0.05839551 -0.11619407 0.042790145
0002b0 7d b7 96 bd b8 10 83 3d c5 76 2b 3d 0a df 51 3d
       -0.07359216 0.06399673 0.041861314 0.051238097
0002c0 0e 82 82 bc ee 66 dc bd 4c 26 5a bc 6d 4f 9b 3c
       -0.015931156 -0.1076182 -0.013314795 0.018958772
0002d0 8e bb 9b bd 8e b3 a3 bd df 32 16 bd 5b 7d ec 3c
       -0.076041326 -0.07993232 -0.03666961 0.028868368
0002e0 ed 7c 0a 3d 29 06 6c 3d 4b 3c 81 3d f8 33 e0 3c
       0.033810545 0.057623062 0.06310328 0.02736853
0002f0 86 a3 a5 3d 98 1e ac bd 92 ef f4 bd e4 65 1d 3d
       0.0808783 -0.08404273 -0.11959757 0.03842725
000300 78 96 e8 3d 8f 4d f4 bc 63 a5 d4 3c d5 a5 14 bd
       0.11356825 -0.02982214 0.025957769 -0.036290962
000310 70 4c 8f 3d 9a 5f 3e bc 10 ce 32 3d 5b c5 fe bc
       0.06997001 -0.011619473 0.043653548 -0.031099966
000320 32 8b ee bd 3d 15 3e bb 3b 46 02 be 65 44 c0 bd
       -0.11647643 -0.0029004358 -0.12722103 -0.09388045
000330 bc da 4b 3c 7d ef 36 bd c3 49 aa 3c 96 6c 4d bd
       0.012442287 -0.044661988 0.020787125 -0.050152384
000340 95 e3 75 bd e7 d0 82 bd f2 7e a5 bd 4b af 9b bc
       -0.060031492 -0.06387501 -0.080808535 -0.019004485
000350 ba 8b a1 bc c0 df 86 bd 70 9f 28 bc 48 14 eb bd
       -0.019719947 -0.06585646 -0.010291919 -0.11478478
000360 2b 62 5c 3c cd 32 82 bd 21 4c f4 3d a9 f8 8b 3d
       0.013451139 -0.06357346 0.11928583 0.068345375
000370 da 1a 35 3d ab f1 9f bc 4f c6 14 bd 42 47 e4 bd
       0.04421506 -0.019524416 -0.036321934 -0.11146404
000380 0f 32 f0 3d 60 1e 51 3c 90 be 8b 3d 3c dc 55 3c
       0.11728298 0.01276359 0.06823456 0.013052996
000390 80 0b db bd 00 c7 bd 3b 03 d1 96 bd 84 e2 cd bd
       -0.10695553 0.005791545 -0.073640846 -0.1005297
0003a0 ed 01 a3 bd 10 f3 66 bd ad 8d c0 bc 21 13 bf bd
       -0.07959352 -0.056384146 -0.023505056 -0.093298204
0003b0 eb 30 eb 3c 61 0b 13 3d 3a ef 4f 3d 47 92 53 bc
       0.02870985 0.035899524 0.050765254 -0.012913293
0003c0 5e df 78 3d 6f 6f f7 3c 83 2f c7 3d 06 c4 4b bd
       0.060759895 0.030204503 0.09725859 -0.04974749
0003d0 8e 99 da bc 0d 83 93 bd 27 db 89 bd 6a 47 c1 3c
       -0.026684549 -0.0720273 -0.06731253 0.023593623
0003e0 4b cc 6c 3d 26 77 86 bc 5b 9e 37 3d d2 66 e2 3b
       0.057812016 -0.016414236 0.044828754 0.00690923
0003f0 28 59 8c bc ec 93 59 3d 02 06 52 3d ea a8 be 3c
       -0.017132357 0.053119585 0.05127526 0.023273904

lstm.bias_ih_l1 f4 [512]
000000 00 82 aa bd a1 e9 b8 3d 94 9a d4 3a e8 87 59 3d
       -0.08325577 0.09028936 0.0016220384 0.053108126
000010 ea 06 a6 bd 73 f6 60 bc 75 6c a9 bc 4e d7 e5 3d
       -0.081067875 -0.013730633 -0.0206816 0.11222707
000020 b8 5f 5c 3d 05 d2 19 3c 90 5e a0 bc 68 e6 05 bd
       0.053802222 0.009388451 -0.01957634 -0.032690436
000030 9c 9f 4a 3c 90 b2 11 3c 69 8e a3 3c c1 2c cd 39
       0.012367155 0.00889267 0.019965367 0.0003913399
000040 7c 88 c2 3d 72 a7 82 3d d2 ae b0 bc a0 29 10 bb
       0.094986886 0.06379594 -0.021567736 -0.0021997467
000050 e3 3b fc bc 0d 4a 8f 3d 34 6e 81 3d c5 80 47 bd
       -0.030790275 0.06996546 0.06319848 -0.04870679
000060 77 ca 2d 3d e2 ea f7 bb 24 97 5e bd fd 8b 8d bc
       0.042429414 -0.007565842 -0.054343358 -0.017278666
000070 42 d9 9f ba 8f ff 81 bc 37 50 b9 3d 11 d5 b3 3d
       -0.0012195485 -0.01586893 0.09048503 0.087808736
000080 c1 c8 9f 3c a5 3f 27 3d 53 34 57 bd f7 f5 83 3d
       0.019504907 0.04083218 -0.052540135 0.064433984
000090 4c da 30 3d 45 9e 80 3c fa e4 e8 3d f6 14 97 3d
       0.043176934 0.015700469 0.11371799 0.07377045
0000a0 8c ad 9d 3c 51 87 bd 3c 88 10 85 3d 66 8b 93 3d
       0.019247793 0.023135813 0.06497294 0.072043225
0000b0 27 f8 20 3d 54 64 7d 3c 8d cd 54 bd 90 bc d5 3d
       0.039299157 0.015465815 -0.05195384 0.10436356
0000c0 7f bc 3a bd 4e 37 d3 bc 52 30 bd 3d 4f 51 50 bd
       -0.04558992 -0.025783207 0.09237732 -0.050858792
0000d0 8f 7d e7 bc e9 c2 ec bb 27 ae 72 bd a5 67 7c 3d
       -0.028258113 -0.0072253835 -0.059248116 0.06162228
0000e0 9a 24 04 bd c9 40 77 3c c9 1e a9 3d cb 7e 9b bd
       -0.03226147 0.01509113 0.08257825 -0.07592543
0000f0 ed d7 9d bd 69 ae 77 bd 69 17 b5 3d 51 08 df 3d
       -0.077072 -0.060469065 0.08842356 0.10890258
000100 e0 1f 37 bd 9e 68 b4 bb d6 30 6a 3d 0b ce 3b 3d
       -0.044708133 -0.0055056354 0.05717548 0.045850795
000110 78 29 98 bd f8 98 95 bd c5 18 85 3d c0 2f ab 3d
       -0.074297845 -0.07304567 0.06498865 0.08358717
000120 ed 27 57 bd c1 4d 78 bd b8 21 49 3d e1 e5 22 bc
       -0.05252831 -0.060621027 0.049104422 -0.009942503
000130 cf 73 27 3c 44 91 ac 3d 79 81 25 bd 44 d6 69 3d
       0.010220482 0.08426145 -0.040406678 0.057089105
000140 bd be 7f 3d 8f e3 de bc 50 32 93 3d de e2 1c bd
       0.06243776 -0.027208118 0.07187331 -0.038302295
000150 01 21 2c bc 94 04 72 3d b8 b4 14 3d d3 60 32 3c
       -0.010505916 0.059086397 0.03630516 0.0108873425
000160 57 37 07 bd 23 75 c9 3d 90 f4 89 3d 6a df a2 bd
       -0.03301176 0.09836795 0.067361 -0.07952769
000170 f3 45 88 3d d1 6d 0d bd cb 6b ac bd e8 a0 a0 3d
       0.06653967 -0.034528557 -0.084189974 0.078431904
000180 43 8f bd 3c e4 51 48 3c 8b 89 d6 bc 2c c4 f2 bc
       0.023139602 0.0122265555 -0.026188632 -0.029634558
000190 94 d2 d9 bd 51 f9 6a bd 82 12 3e 3d 4b 4f e9 bc
       -0.10635868 -0.057366673 0.04640437 -0.028480193
0001a0 64 26 9a 3c 07 9d 27 bd f8 7a a0 3d d1 75 57 3d
       0.018817134 -0.040921237 0.078359544 0.052602593
0001b0 8c 0b 95 3d bf 6d 55 3d 8e 73 d1 3d 4a 6a 6e bd
       0.07277593 0.052106615 0.102271184 -0.058206834
0001c0 0a bd c8 3d ac 96 3c 3c e3 35 c6 3d 8a ca 81 3c
       0.09801681 0.011510532 0.09678247 0.015843648
0001d0 ea 69 3d bc e4 f6 9e bd 55 85 97 3c 57 83 81 bd
       -0.011560896 -0.077619344 0.018496195 -0.06323879
0001e0 49 03 5a 3b b8 67 bc bc 6d 09 12 bc de c6 7c bd
       0.0033266118 -0.022998676 -0.00891338 -0.061713092
0001f0 ed 9c 50 3d 58 26 9f 3d 18 c7 92 3d 59 80 90 3d
       0.050930906 0.07770985 0.0716688 0.070557304
000200 16 4f b0 bd 3a 49 1c bd b4 f8 79 bd a7 63 a2 3d
       -0.086088344 -0.03815577 -0.061028197 0.079291634
000210 19 9e 7a ba 58 fd 27 3b 12 f2 fc 3c 39 1b 8f bd
       -0.00095603016 0.0025633182 0.030877147 -0.06987614
000220 69 e8 3d bd e2 d8 6a bd 90 fb 48 3d c3 52 10 bd
       -0.04636422 -0.05733574 0.049068034 -0.035235178
000230 1c 3b 83 3c ca 16 bf 3d c0 26 01 3d a7 f5 48 3d
       0.016019396 0.093305185 0.031531096 0.049062397
000240 82 ff a2 bb b3 52 f4 bc 9b 49 71 3d 28 c2 80 3c
       -0.0049743066 -0.02982459 0.058908086 0.01571758
000250 85 af a9 bb f4 de a4 bd fe ec 98 3d 9e 75 0f 3c
       -0.0051783943 -0.080503374 0.07467078 0.0087560695
000260 a5 46 88 3d a2 3c 49 bd 46 f6 b2 3d fc 7a 84 3d
       0.066540994 -0.04913009 0.08738379 0.0646877
000270 12 b9 1b 3d a7 3b 81 bc 21 90 55 3c d0 e2 38 bc
       0.038018294 -0.015775515 0.013034851 -0.011284545
000280 0b c7 45 bd ec 6b 95 3d 50 55 26 3c d6 fc a9 3d
       -0.048285525 0.07295975 0.010152176 0.08300178
000290 ce 6f 98 3c cd 2a 58 3d 51 05 32 3d 58 58 82 3d
       0.018608 0.052775193 0.0434621 0.063645065
0002a0 1f b2 9d 3c a7 21 e3 3d 6d b3 a3 bd df 9d ef bc
       0.019249974 0.11090403 -0.07993207 -0.029250083
0002b0 6a 39 8c 3d fd 87 6b bd 87 e0 ab bd 34 0d 86 3d
       0.06846888 -0.057502735 -0.083924346 0.06545487
0002c0 6c ac fd bc 1b 6b a2 bc b7 22 c4 3d 21 da e8 3d
       -0.030966006 -0.019826462 0.09576934 0.1136973
0002d0 2c 7a 1d bd ef 70 a9 bd 9a 51 8a bd 48 42 46 3c
       -0.03844659 -0.082734935 -0.067538455 0.012100764
0002e0 68 65 f3 bc 90 70 f1 3d 5d 2c 19 bc 29 31 80 3c
       -0.02971144 0.11789048 -0.009348956 0.015648441
0002f0 e9 f6 3c 3d a6 97 d4 3c 1a 22 17 bd e2 89 7b 3d
       0.04613391 0.025951218 -0.036897756 0.061410792
000300 d0 94 b7 3b 4d c0 77 3c 15 ff 80 3d 28 c6 98 bd
       0.0056024566 0.015121532 0.06298653 -0.0745967
000310 a2 c3 a9 bd 74 27 8a 3c 49 fd 9d bd 25 d9 a1 bd
       -0.08289267 0.016864516 -0.07714326 -0.07902745
000320 bf df 63 bd 6d 23 99 3b 4e 00 2a bb 32 ed 99 3d
       -0.055633303 0.0046734125 -0.0025940123 0.075159445
000330 ff eb 5e bd d8 b4 cd 3c ff 8a 6f bc b9 3a aa ba
       -0.054424282 0.025110647 -0.014620542 -0.0012987471
000340 f6 ae b9 3d e9 a5 a1 3d 07 00 ef 3c ba 36 9e 3d
       0.09066574 0.07892973 0.029174818 0.07725282
000350 b6 10 3b bc 56 d8 58 bd 68 09 71 3d 12 bc 14 bd
       -0.011417558 -0.05294069 0.05884686 -0.03631217
000360 1e 31 67 bb 85 ef 54 3d 04 83 26 bd 82 d2 a1 bd
       -0.003527708 0.051986236 -0.04065229 -0.07901479
000370 81 c1 f3 3b f3 4f c0 bc a9 fc 05 3d 9b 16 d1 3d
       0.007438839 -0.023475623 0.03271166 0.1020939
000380 3e 1e bb bc 89 bc 9c 3d 42 47 88 3d aa 49 33 3d
       -0.022841569 0.07653148 0.06654216 0.043771423
000390 3b 85 6e bd 72 44 a8 3c c6 f8 c5 3d c3 53 9f 3d
       -0.058232527 0.02054045 0.096665904 0.07779648
0003a0 c8 06 e4 3d af 38 41 bd 3e dd 0c bd 93 3a 0c 3c
       0.11134106 -0.0471732 -0.03439068 0.008558887
0003b0 a7 e2 d9 3c 6d 0a a2 3d b6 87 21 bc dc c0 25 3d
       0.026597334 0.07912145 -0.009859016 0.04046713
0003c0 90 ab 9c 3d 3d e2 02 3d e2 30 8a 3b c2 60 ac bd
       0.076499104 0.03195404 0.004217253 -0.084168926
0003d0 80 71 d6 3d 00 df 4f bd f4 2a 9f 3c d0 2f b2 bb
       0.10470867 -0.05074978 0.019429661 -0.0054378286
0003e0 01 2e 04 bd 66 b7 68 3d af 84 72 3d 29 60 d0 3c
       -0.032270435 0.056815527 0.05920857 0.025436478
0003f0 78 0c ca 3d 40 c7 65 bc b5 c1 04 bd 93 cf 4d 3d
       0.098656595 -0.014024556 -0.032411296 0.050246786
